color.pt (torch, 97095 bytes, 6 tensors)

fc1.weight f4 [128, 50]
00000000: 524b 8b3e 9431 adbc 261d 19bf cd0f 2bbf
00000010: e391 cf3e 5373 013e 2979 9a3e 2d50 70be
00000020: fcf8 c03e af35 923e bf7d 0cbf 0cb0 0abf
00000030: 16ba 1dbd 5e6f 91be 53b7 033e b645 da3c
00000040: 2eb5 663f 217f 0e3f 66a6 2b3e b3d3 04bc
00000050: 07a7 8d3e 777d 6e3e 2d97 523f ce0b 7a3e
00000060: 072c 67be 402a cf3d 523e 4f3f 033a 4a3f
00000070: 665a fd3d be77 dd3e 5d62 3d3e 2fe1 8b3d
00000080: 06f6 da3d 1783 28be 99b6 953e e0cc 42be
00000090: aa76 1b3f 4d09 76bd b582 61be 0640 aa3c
000000a0: 0b86 4bbf d521 bebe a0a6 7abf dbde acbe
000000b0: 0780 ce3e a180 e9be 2150 903d 6b9d b1be
000000c0: 6cb4 60be 4a63 7b3f ccf0 4c3d 955e af3e
000000d0: 9d4e 433f 9601 063e 3430 6ebe 8379 0e3f
000000e0: 8592 be3d c6af 133f 5c81 813f d8c4 2ebf
000000f0: 21be c7bd 2d9d 1cbf 9040 a2be 7583 8bbe
00000100: 28f6 843e dd25 043e df63 20be 2df2 a83e
00000110: afe7 653e 3223 523d 0023 00bf 0766 2c3f
00000120: 9a37 2c3e 4ed9 033f a53a 1b3f 933b 61be
00000130: 0c5b c43e 01ff 093e da97 6abe 5e24 6bbc
00000140: 5b4a d3be f608 94be e93b 63bf ae15 20be
00000150: d5fb d0be e496 bd3e ef61 97bd 2e39 323d
00000160: 82af 843f 2f25 3f3f c940 0a3e 2aef 523e
00000170: 5289 923c b4b2 dcbe 0581 993d c4fb a83e
00000180: 72cd 8f3d 4f6f a3be 5c36 913d 328f 1bbf
00000190: 5429 98be cc12 ebbe 7489 98be 74bd ecbe
000001a0: dffe 06be a1a9 b8bd 430f 33bd e58e 5bbe
000001b0: d852 733e 8e4d dc3e 000d 9e3e e115 49be
000001c0: b6e9 3f3f b045 33bf 76c0 c8be 319f 1e3e
000001d0: 9985 3cbf fd8c e63d 6edb 223f 5032 63bc
000001e0: 36ed 6b3d a126 023e da03 413f 38ad 653f
000001f0: d710 a5bd 415e 343e 80ec 033f 4e80 133f
00000200: 7790 473f 3038 bdbe fcbc 2abe cf81 adbe
00000210: e09b 49bf f59c 843e 795a f13e 8049 7ebf
00000220: b08b adbb e1b8 a03e 3a9f 40bd e6c1 b43e
00000230: a0b0 c33e 8a75 82be 94ac aa3e 0b03 283e
00000240: 372f d9bd d202 95be 75cb e23d 7ed6 1c3f
00000250: a333 633f b664 303e 6485 e2be a269 c13e
00000260: 23e5 e5be cb75 0dbf ebfa 75bc f550 d0be
00000270: 9782 dc3d cd5f c43d 37bc 523f 47af 06bf
00000280: 4914 ddbb ebb0 15bf bdff 0a3e 3933 843e
00000290: bc82 40bf 4e1d 8b3f 7938 583c 3478 56bf
000002a0: 94ad 4b3e 958d dd3d ce68 7f3f b5ce 8f3e
000002b0: de74 0abe 10b7 3b3f c946 ccbe 980e 423d
000002c0: ec24 b33e e9eb a4be 07a8 abbd 0aec 3f3f
000002d0: 34bf 383e 5f83 883e d9e7 f0be 3290 34bf
000002e0: c507 a4bc 97ba 823d b487 143c 9329 083f
000002f0: fb49 66be 6e20 723f 93fe 14bf 4275 abbc
00000300: 9914 efbe 7a4a e43e a48b a9be 05c9 cebe
00000310: 2b6f 993d 1e30 853d 5f2a f93e cd95 b83e
00000320: 4976 743e f616 09bc 2d22 153e 71c1 d5be
00000330: 9a86 ea3e aecc 393f 11af 18bf 4709 193e
00000340: 4dfe 8b3e f0c8 16bf ca17 18be 6657 1bbf
00000350: 199d 17be f3d9 c73e 0aa4 a33e 3c4b f8be
00000360: f3e3 6c3d fc36 1d3e 8d1a ef3d aa51 c13e
00000370: 1e81 1bbf 9940 e8be 8545 3f3f 279a dcbd
00000380: 40b4 23bf 2641 95be 326d 0ebf 1e6c 883d
00000390: 44a2 493d 2822 143f 878a a43d b01d 5bbf
000003a0: 1ba6 dbbd 34f5 73be 0074 e13d 581c 9a3e
000003b0: c8ca e83e 50a3 bb3d fc29 fcbc d941 6cbe
000003c0: e3eb 3d3e 5f8c 95be ed62 23be a9bf 7ebc
000003d0: beed 543f 02a6 bfbe b49e 3cbe 2c78 da3e
000003e0: b51f 03be e9eb c13e e329 243e 2ebb 29be
000003f0: 73ac 643e ef7f 0ebd 49b0 f83e 4bc9 c63c
0.27205902 -0.021141805 -0.598101 -0.66820985 0.4054099 0.12641649 0.30170563 -0.23468085
0.3768996 0.28556582 -0.54879373 -0.54174876 -0.038507544 -0.2840528 0.12862901 0.026644569
0.9012021 0.55662733 0.16762695 -0.008107114 0.27666494 0.23290049 0.82261926 0.24418566
-0.22575389 0.101154804 0.8095447 0.7899477 0.12370758 0.4325542 0.18494554 0.0683006
0.106914565 -0.16456257 0.29240873 -0.19023466 0.6072794 -0.060067464 -0.22022517 0.020782482
-0.7950141 -0.37135187 -0.979105 -0.33763775 0.40332052 -0.4560595 0.070465334 -0.34690413
-0.21943825 0.9819838 0.05003433 0.34251848 0.7629183 0.13086542 -0.23260576 0.5565416
0.0930529 0.57690084 1.0117602 -0.6826911 -0.09753061 -0.6117733 -0.31689882 -0.2724873
0.25969052 0.12905069 -0.15663098 0.32997265 0.22451662 0.051303096 -0.50053406 0.6734318
0.16818085 0.51503456 0.6063636 -0.21995382 0.38350713 0.13476183 -0.2290949 -0.014351932
-0.41267666 -0.28913087 -0.8876329 -0.1563327 -0.40817133 0.37029183 -0.07391726 0.043511562
1.0366061 0.7466611 0.13501276 0.20599046 0.017887745 -0.4310509 0.07495312 0.33004582
0.070216075 -0.3192086 0.07090446 -0.60765374 -0.2971903 -0.45912778 -0.29792368 -0.4623829
-0.13183163 -0.09016729 -0.043715727 -0.21441229 0.23762071 0.4302792 0.30869293 -0.19637252
0.7496599 -0.7002821 -0.39209336 0.15490414 -0.73641354 0.1125736 0.63616073 -0.013866976
0.05759927 0.12710048 0.753965 0.89717436 -0.080598526 0.1761408 0.51532745 0.5761765
0.7795481 -0.3695693 -0.16673654 -0.338881 -0.7875347 0.25901 0.47139338 -0.993309
-0.005296193 0.3139105 -0.04702685 0.35304183 0.38220692 -0.254803 0.33334792 0.16407411
-0.10604709 -0.29103714 0.110739626 0.6126479 0.88750666 0.17225918 -0.44242394 0.37775904
-0.4490138 -0.5525786 -0.015013437 -0.40686765 0.107670955 0.09588585 0.82318443 -0.526112
-0.006746803 -0.5847308 0.13574119 0.2582033 -0.75199485 1.0868318 0.013197058 -0.83777165
0.19890434 0.1081802 0.99769294 0.28087392 -0.13521144 0.73326206 -0.39897755 0.0473772
0.34989107 -0.32211235 -0.08381658 0.7496954 0.18041688 0.26662728 -0.47051886 -0.70532525
-0.020023236 0.063832454 0.009065557 0.5318844 -0.22489159 0.94580734 -0.5820095 -0.020929936
-0.46695402 0.4458807 -0.3311435 -0.4038774 0.07491907 0.06503318 0.4866514 0.3605179
0.23873247 -0.008367291 0.14563818 -0.41749147 0.45805818 0.7257794 -0.5964213 0.14944945
0.27342454 -0.58900356 -0.14852825 -0.60680234 -0.14806022 0.3903347 0.3196109 -0.484949
0.057834577 0.15353006 0.11674986 0.37757617 -0.6074389 -0.45361784 0.74715453 -0.1077159
-0.63946915 -0.29151267 -0.5563537 0.06661247 0.049227014 0.5786462 0.080342345 -0.85592175
-0.107250415 -0.23824006 0.11008453 0.3009975 0.4546721 0.09162009 -0.030781738 -0.23071994
0.18547015 -0.29208657 -0.15955706 -0.015548625 0.83175266 -0.3743134 -0.18419915 0.4266981
-0.12805064 0.37875298 0.16031604 -0.1657531 0.22331409 -0.034789976 0.48571995 0.024265906

fc1.bias f4 [128]
00000000: 676b 78be 442a 3cbe 3004 d7bd 7069 52be
00000010: 1017 e2be 96d6 bbbe d3d8 e7be 8346 aebe
00000020: 957a 333d 8c56 54be 8b5e 28bd 3722 93be
00000030: 5e3a 7ebe 755b 15bd 9395 aabe 557f 0abd
00000040: b26f ddbd b667 84bc 52b7 cbbe 56e0 23bf
00000050: 9caa 20bf 75af 29bf 4021 aebe 83c3 1fbe
00000060: ddc0 41bd e2de 0dbe dc07 b03d d7e1 ffbe
00000070: addd 19be 481b 0cbf a797 82bd 8560 1cbe
00000080: 59e2 85bc 448c afbe 34a0 653d 46f3 10be
00000090: 8463 f2be 72ae 383d f7aa 1e3d 2797 13bf
000000a0: 938a e2be 5b8f 70be 7b1b 30be e9d9 a5be
000000b0: 7554 73be 09fb 2fbe f508 aabe d251 d6be
000000c0: 5e15 0c3d c26b cbbd d642 4fbe 97d7 7fbd
000000d0: cf2a 3bbe 3437 a5bd e393 4dbe 0ddb d2be
000000e0: 7da4 8ebe 7d34 92be a992 53be 5d2b 12be
000000f0: dbd0 63be fd0d c6be 74a7 20be eada 1fbe
00000100: a7fd 89bd 1654 8ebe d516 babd adf0 c4be
00000110: 39f9 07be 6846 2abf 0fef 28be 5a19 413d
00000120: f215 acbe 098f 76bd 10f0 93be 518c 19be
00000130: 432f 7e3d e0b9 edbd 8e63 11bf a871 0ebf
00000140: 3925 83be 4014 42bd 7d9f c3bc 5e39 7cbe
00000150: 3b7d 9cbd 2b86 adbe c200 4c3d d057 b93c
00000160: a847 433d 6ab7 c7bd 7225 10bf a0b5 8abe
00000170: aef1 19be 1cf4 dc3c 9e82 bebd 09fd 87be
00000180: c7c0 1ebe f79d 4abe dbae 0ebe 53f1 81bd
00000190: b47f e1bd 67ad debe d873 8e3e 892b 62be
000001a0: cb63 bfbe b7ed 1fbf 79ac 86be f5bf 37bd
000001b0: 939f d7bd 002f 4c3d 8ab9 94be 3899 84be
000001c0: 4772 29be 03c0 1cbe 2fad 73be 099c 653b
000001d0: 27d9 c8be fde9 e6be 882a 283d 683a 7fbe
000001e0: e28e 19be 36a9 11bf fede 04bf 564b b1be
000001f0: 05c5 37be ec09 fa3c 6086 b03d d390 43bf
-0.2425972 -0.18375498 -0.104988456 -0.20548034 -0.4415822 -0.36687154 -0.4528261 -0.3403817
0.043818075 -0.2073614 -0.04110579 -0.2873704 -0.24826953 -0.036464173 -0.3331724 -0.03381284
-0.1081232 -0.016162734 -0.397883 -0.64014184 -0.6276033 -0.6628335 -0.34009743 -0.15601926
-0.04730307 -0.13854554 0.08595249 -0.4997699 -0.15025969 -0.5472913 -0.06376582 -0.15271194
-0.016343283 -0.34286702 0.056060985 -0.14155301 -0.4734155 0.04508824 0.038737264 -0.57652515
-0.4424635 -0.23492186 -0.17197983 -0.32392815 -0.23762687 -0.17185606 -0.3320996 -0.418593
0.034200065 -0.099326625 -0.2024034 -0.062461462 -0.18278049 -0.0806717 -0.20075946 -0.41182747
-0.2785987 -0.2855567 -0.20661415 -0.14274354 -0.22247641 -0.38682547 -0.15688878 -0.15610853
-0.067378335 -0.27798527 -0.09086386 -0.3846487 -0.13278665 -0.6651368 -0.16497444 0.047143318
-0.33610493 -0.060195003 -0.2889409 -0.14994933 0.06205679 -0.116077185 -0.56792533 -0.55642176
-0.25614336 -0.047382593 -0.02387976 -0.24631259 -0.07641073 -0.33891425 0.04980541 0.02262488
0.04767576 -0.0975178 -0.56307137 -0.27091694 -0.150336 0.02697187 -0.09302257 -0.26560238
-0.15503226 -0.19786821 -0.1393389 -0.06344857 -0.110106856 -0.4349167 0.27822757 -0.2208692
-0.37380823 -0.624721 -0.2630346 -0.0448608 -0.10528483 0.04984951 -0.29047805 -0.25898147
-0.165475 -0.15307622 -0.23796533 0.003503563 -0.39228174 -0.45100394 0.041056186 -0.24924624
-0.14995912 -0.5689882 -0.5190276 -0.3462779 -0.1794625 0.03052231 0.0861938 -0.7639286

fc2.weight f4 [128, 128]
00000000: d19d c83e 4fac 9d3e ff27 40bf e7b1 7cbf
00000010: 5a3a eb3d 3aa0 ee3d f89f cf3e 5fc2 f63e
00000020: 8617 ebbd 9d3b f6bb 52c1 9fbe 65ae bd3e
00000030: fc47 bfbe 2151 bdbe 045a ba3d e4a4 ca3e
00000040: c103 87be 5609 73bf 5d5f cebc 279f 93be
00000050: 74f9 303f ad5c 9e3c 6e61 cf3e 2133 433d
00000060: fdde eabd f765 19be b680 06bf 0ae2 653c
00000070: 5484 823e c134 0cbf 9ab6 87be af0d cfbe
00000080: bea8 a23e b9ce 44be 13a4 e33e 1f46 c53e
00000090: 1055 b7be 5ff0 a13e 54d6 903e 95a1 1e3e
000000a0: 1889 c9be ba7f a23e 7954 253f 2d9d de3e
000000b0: ff23 59bf 56f1 f5be 2e2a 793a 64c1 41be
000000c0: b773 833e 028f 323d d852 da3d 8c0d 333d
000000d0: 5dbf fdbd fa9c 8abc 519d f13e f044 f1be
000000e0: a7f6 a03e 4cb5 a33e 453a 30be 5972 00bf
000000f0: 9c2f 96be 79e8 543e 79d7 e83e f669 50be
00000100: cfa6 b5be 8fe4 c13c 7c1c 09bf 0209 e4be
00000110: 8f4b 713d 50e3 b9be bfea 103e e620 6f3e
00000120: 8586 36bd 1692 45be e4f3 1ebe 3c70 053e
00000130: 6162 8a3f ba02 2c3f c8f9 233c 9be0 ce3c
00000140: 9a60 d6bd f933 b73e 3329 af3e 1dec 223f
00000150: c2a6 f53c 6bb6 1abd 0ace 873e 2cd5 b53e
00000160: 7fc2 8cbe 6901 fabe 4a68 76be 3758 bb3e
00000170: a501 da3e 739d 20be 2580 7e3d 5bf0 9c3e
00000180: eb2d d9be 256a 0abe dc42 363f 8d64 323f
00000190: 82b8 343f 02ed b23d 733d b33e 9b06 46bf
000001a0: c36b 283d b831 e63c 9fda 80be b7db 16bf
000001b0: 37bc e63d 20c0 883d 3594 80be 8817 e13d
000001c0: ca02 3a3f 8793 0cbf 1254 8bbf 7895 c6be
000001d0: b0e6 37bc b178 bc3e dd98 ba3e cab3 41be
000001e0: 4a8d cb3e de3f d5be 243b 99bd 5c71 f6be
000001f0: f8ba e3be 89df 883e f091 a93e a808 c3bd
00000200: 09d5 95be 6bef 623f 930e 053c 299a fc3e
00000210: f54b bbbe 9915 86be ee59 c6bf 5307 1dbf
00000220: 168f ebbe 720e da3e 8efd 9ebe 6bb0 d9bc
00000230: d3df 863e d767 39bf d424 4b3f 9ca3 e5be
00000240: 1377 b33e 087c 3ebd ec6f 6c3e 7588 00c0
00000250: 14ab e03e 89e2 3c3d 123c 22be cda2 1b3f
00000260: 6fa8 ef3e 434b 383e 629e 6f3f 02bb 103e
00000270: 0504 00be addf 103e ca59 c0be 66b4 c8bd
00000280: 1795 b6be 9e51 993e 1bfa cfbe 0f14 c5bc
00000290: c851 2b3d 6eb5 7fbe f303 04bf b540 a4be
000002a0: 4edd ef3c f1cd 053f 614f aa3e 5cd4 a63e
000002b0: 2784 833e c662 c13d f369 113f 2c63 01bf
000002c0: 85e5 3dbe f6a1 49be 3f26 0cbf ef1b ed3d
000002d0: 0daa 073f a8ce 30be 16b7 003f 995b 93bd
000002e0: e5bb c43d 559a 41be bcf2 d5bc 39a1 43be
000002f0: e02e aa3e 8b90 d73d 665a 333f 81da 1f3f
00000300: af96 5f3e 08b1 c43d f6b1 92be 4400 5e3e
00000310: 9af0 87bd 5b13 32bf 96eb 6bbe c7ef dc3e
00000320: 878b 9b3e fd80 243e dde5 1fbe 836b 9ebe
00000330: 15a3 22bf 2f82 85bf 237d 5f3e fb17 cb3e
00000340: cd10 823f 62ba e4bd e382 d83c 9135 113f
00000350: fe06 633e 07c1 a33e 268f 96bd 64ec 1dbf
00000360: 5ff0 5a3f 818e 823e 7901 42be a290 27bf
00000370: 6639 01be 247e 6ebc 9763 d3bc 0235 74bf
00000380: 0108 ab3e 671f ae3d d2d7 2e3c ef3c a4be
00000390: 91d7 08be f6ed 2f3f d53c 9b3e 1a1f 2a3e
000003a0: da88 94be b9e0 643f 55b2 933e 64e5 60bd
000003b0: 15d3 15be a04b 4dbf a60d 00be 346b 513d
000003c0: d245 b23d 8a94 c73e baa3 07bf 48d6 20be
000003d0: a5ad 333b 6d7b d6be f5f5 ebbe 951e d83d
000003e0: ec71 0b3f e047 4abe f8d4 8a3e 0d1f 373f
000003f0: 02e6 7a3e 93a5 053f d003 e3be 5592 723e
0.39182904 0.30795524 -0.7506103 -0.9870896 0.11485739 0.116516545 0.40551734 0.48195168
-0.11479096 -0.0075144307 -0.3120218 0.37047115 -0.37359607 -0.3697596 0.090992 0.39578927
-0.26370052 -0.9493612 -0.025191957 -0.2883236 0.69130635 0.0193313 0.4050402 0.047656182
-0.11468313 -0.14980303 -0.5254015 0.014030943 0.25491583 -0.54767996 -0.265065 -0.40440127
0.31769365 -0.19219483 0.44461116 0.3853006 -0.35807085 0.316287 0.2828852 0.15491326
-0.39362407 0.31738073 0.6458202 0.4347929 -0.8482055 -0.48035687 0.00095048815 -0.18921429
0.2567422 0.043593414 0.106603324 0.04371409 -0.12390015 -0.016920555 0.47190335 -0.47122908
0.3143818 0.31974256 -0.17209728 -0.5017448 -0.29333198 0.20791806 0.45476893 -0.20352921
-0.35478827 0.023668556 -0.5355909 -0.44538122 0.05890995 -0.36306238 0.14152049 0.23352394
-0.04456188 -0.19294009 -0.15522724 0.13031095 1.0811273 0.6719166 0.010008283 0.025253585
-0.10467644 0.3578184 0.3421112 0.6364153 0.029986743 -0.037771624 0.26524383 0.355142
-0.2749214 -0.488292 -0.2406322 0.3659074 0.4257938 -0.15685062 0.062133927 0.30652127
-0.42417845 -0.13517053 0.7119577 0.6968468 0.70594037 0.08736612 0.3500782 -0.7735383
0.041118395 0.02809988 -0.25166795 -0.5892901 0.11266368 0.0667727 -0.25113073 0.10990816
0.72660506 -0.5491261 -1.0885031 -0.3878591 -0.011224434 0.3681083 0.3644475 -0.1891624
0.39756233 -0.4165029 -0.07481983 -0.4813336 -0.44478583 0.26733044 0.33119154 -0.095231354
-0.29264095 0.8864657 0.008121151 0.49336365 -0.36581388 -0.26188353 -1.5496194 -0.613393
-0.46007603 0.42589146 -0.31052822 -0.02657338 0.2634264 -0.7242407 0.7935307 -0.44851387
0.35051784 -0.046505004 0.2308957 -2.0083287 0.43880522 0.04611448 -0.15843228 0.6079529
0.46808192 0.1799746 0.9360105 0.14133838 -0.12501533 0.14147826 -0.37568504 -0.09800033
-0.35660622 0.2994508 -0.40620503 -0.024057416 0.04182604 -0.24971554 -0.51568526 -0.32080618
0.029280331 0.52267367 0.33263686 0.32583892 0.25686762 0.09442668 0.5680229 -0.5054195
-0.18544586 -0.1969069 -0.5474586 0.115775935 0.5299385 -0.17266333 0.50279367 -0.07195205
0.096061505 -0.18906529 -0.026116721 -0.1910447 0.33238888 0.10525616 0.7005981 0.62442786
0.21834825 0.096040785 -0.28651398 0.21679789 -0.06637688 -0.69560784 -0.23039088 0.43151686
0.30379888 0.1606483 -0.1561503 -0.309414 -0.63530093 -1.0430354 0.2182508 0.39666733
1.0161377 -0.11168362 0.0264296 0.5672236 0.22170636 0.31983206 -0.07351522 -0.6168883
0.8552303 0.25499347 -0.18945874 -0.6545507 -0.12619552 -0.014556441 -0.025804324 -0.95393384
0.33404544 0.08502083 0.010671573 -0.3207774 -0.13363482 0.68722475 0.3031985 0.16613427
-0.2901066 0.894054 0.28846994 -0.054906264 -0.14631303 -0.8019352 -0.12505206 0.051127627
0.087047234 0.38980514 -0.529842 -0.15706742 0.0027416733 -0.4189104 -0.46086088 0.10552708
0.54470706 -0.1975398 0.27115607 0.71531755 0.24501804 0.5220577 -0.44338846 0.23688634

fc2.bias f4 [128]
00000000: 4109 68bd 3962 bcbc f54c 94bd cbe1 173e
00000010: b401 853d 9b8d 40bd 28eb 2e3e 5285 ffbe
00000020: ebbf 21be a483 ae3d a953 333e 8284 e0bd
00000030: 6778 3a3e 871c 4fbe ce7e f2bd 76cc 35bd
00000040: d98d 753e ee3d c73e fb55 0dbe 470d 563e
00000050: 4d33 713e 6a6b f23d 1e7f c7bd 0dd1 e43d
00000060: 9eeb 0f3e f3af 6d3e 5a33 41bd 7a52 3bbe
00000070: 5037 6d3e 7e14 52bd 1865 ff3d 829e fcbb
00000080: eae4 813e 0d15 1fbe c609 913d 4a00 e63d
00000090: 7a15 3e3d 552d ae3e 9993 08be e89e dc3d
000000a0: e157 083e 2ca4 a9bd 36f0 ef3c e085 32be
000000b0: babf 65bd f5ed 9abd 1481 3b3d 2712 c03d
000000c0: 4be9 b13d c98d 3ebe 4fb5 1f3e a902 54bc
000000d0: 3e96 f5bc ad06 4dbe e589 4dbe 6ac6 94be
000000e0: 8475 aabe 0211 f33d 316b 9a3c b8cf 0f3e
000000f0: 4bdf b7bd 7a13 1a3d f428 6abe 91ea d2be
00000100: 0c83 2bbe da4d a3bd f46d 833e 9bd5 9abe
00000110: 870d 25be df51 64be ce38 ec3d fb8d 1f3f
00000120: 8346 dbbd a842 fa3c f050 733c efe0 e03c
00000130: c6cc efbe c225 e4bd 606c aa3b 9564 553e
00000140: 39b1 c7bd 9c62 253e b10e c5bd 2638 21be
00000150: 6c81 2dbe 07a6 2b3e ed5a cf3e eb9a 303e
00000160: 080c 463e 6678 80be 5f45 e03c ed2f 3c3c
00000170: 4cc2 013d 944b e4bc e465 d13d a2cc 333e
00000180: 0c83 7cbe 20c8 0abe 2837 a03d 5374 14bd
00000190: 1506 f63d e61e 8b3e cb94 a0bc 7613 e13d
000001a0: f45c 253e cfd5 91be 690f debb 6f7b 5dbd
000001b0: 15d1 75bd 900f a03d db20 303e 1593 053e
000001c0: ac8a a03d c61e a73e 0c33 6b3e 79ad 913e
000001d0: 58bb f93d 3444 9bbc 09f2 233d b906 0dbe
000001e0: 912e acbd ca35 a23e 4072 00be 16d6 823d
000001f0: 18bd ef3d 63a3 923e 88a4 ca3d a7cf 0bbe
-0.05664945 -0.022996055 -0.07241241 0.14832227 0.064944655 -0.047010045 0.17081892 -0.49906403
-0.15795867 0.08521202 0.17512383 -0.10962774 0.18209992 -0.20225726 -0.11840592 -0.044384442
0.23979892 0.38914436 -0.1380233 0.20903502 0.23554726 0.11836894 -0.097410426 0.11172686
0.14054725 0.2321165 -0.047168113 -0.18293181 0.23165631 -0.051289074 0.12470454 -0.0077093253
0.2536996 -0.15535374 0.07081942 0.11230524 0.0464072 0.3401896 -0.13337554 0.107724965
0.13314773 -0.082832664 0.029289346 -0.17433882 -0.056091048 -0.07564918 0.045777395 0.09378462
0.08687075 -0.18608774 0.15596507 -0.012940087 -0.029978868 -0.20022078 -0.20072134 -0.29057628
-0.33292782 0.11868478 0.018849941 0.14044082 -0.08978137 0.03761623 -0.22867185 -0.41194585
-0.16749209 -0.079738334 0.25669825 -0.30241093 -0.16118442 -0.22296856 0.11534272 0.6232602
-0.107068084 0.030549362 0.01485084 0.027451007 -0.46835917 -0.11140014 0.0052009076 0.2083915
-0.097505994 0.16150898 -0.09621943 -0.15744075 -0.16943902 0.16762553 0.40499058 0.17246597
0.19340527 -0.25091857 0.027376829 0.011486036 0.031679437 -0.02786807 0.10224512 0.1755853
-0.24659365 -0.13552904 0.0782302 -0.036243748 0.12012879 0.2717201 -0.0196022 0.1099004
0.1614874 -0.28483436 -0.0067767394 -0.054072794 -0.06001385 0.07815468 0.17200033 0.13044389
0.078389496 0.32640666 0.22968692 0.28452662 0.12193936 -0.01895342 0.040025745 -0.13772096
-0.08407319 0.31681663 -0.12543583 0.0638849 0.11705989 0.2864028 0.09894663 -0.13653432

fc3.weight f4 [6, 128]
00000000: 72b1 34bf bd57 173f d7f1 64bf 51cb 02bf
00000010: 8003 723f d2d8 b5be 16c0 8c3e beb7 033f
00000020: 4e7f 9dbf 62e6 a73e 0ae5 04bf 838e 293d
00000030: 9b82 70bf a99c 203e 1e20 af3e d76b 433e
00000040: 6a50 813e 5db3 efbf 80a1 663e 3936 38bf
00000050: d7dd eebe b5d1 8b3e 31cd 813e b8b1 043f
00000060: ce80 b33e 2c9b a6be ffba 3d3e 8c18 2a3f
00000070: 30fc bd3f 51fa 923e c755 88bf d0c2 7d3e
00000080: 22ff 3abd 0800 0d3e 7c9b babf e7d0 1cc0
00000090: 1270 643e 9c14 293e d79c 483e 5650 c2bf
000000a0: bc39 1b3e 9426 113f 09de 10bf 468d f03e
000000b0: dca8 7f3e bfbc b53e e7fd 0bbf a787 8ebf
000000c0: 949b 673f ddae 30bf 2a6f 0ac0 dfff e1bf
000000d0: c2db 023e edae a63e fa1c 713e fb84 a53e
000000e0: 9130 b63e 236a eb3d 9f9c a3bf a744 593e
000000f0: 50aa 12be 7bc2 c13e 9167 a53d 59d7 ddbf
00000100: 645d 4cbe 2130 8bbe 280c be3e e7d5 bb3f
00000110: e9f2 14c0 1b01 db3e 0723 2c3e 10cc d0bf
00000120: 02ce 4fbe ff9e 243e 67d1 303e 784b 023f
00000130: 99bf 143f 134a 893f 3f82 713d c0f9 d7bf
00000140: aa5a 83bd b288 f03e 2507 473f 23ba a7bf
00000150: df84 263f 521a d0bd 99cd febf 2749 de3d
00000160: 0968 423f 7561 cc3d b352 9fbe 76d5 473f
00000170: 7680 bfbf 5b36 f7bf 8996 1a3f fb47 ba3e
00000180: 38af a83e 2477 a33d f596 da3d e330 813e
00000190: 56b0 ff3e 1976 c3bf e4bd 1bbf cfd2 aa3e
000001a0: ca39 bcbd 9fde 0440 fffb 8a3d 0a3c 8f3e
000001b0: 4bde 1c3f d9fb 8dbe c6f8 fc3e 459d cdbb
000001c0: 9018 b7bf 5ddc 2bbf d46e ac3e de3c fdbe
000001d0: e656 ea3e 7d09 0d3f 868c dd3e 957f f4bf
000001e0: d67f 0d3e fad9 98bf cd46 d0ba a103 74bf
000001f0: c7e5 d83f 7638 f23e 9f05 52bd a6a1 293e
00000200: 27e0 3e3d 87d3 1e3e e305 023e f422 62bf
00000210: 93ab b0bf 66b3 2b3f 6764 953e c738 c03e
00000220: fbe0 4a40 4bb4 2a3f b2bf 983e d091 ce3c
00000230: 7d6b 083e 5834 433e 92f8 cb3e 1424 b6bd
00000240: 2077 1b3f ea62 4fbf 788c 7fbf 7818 e43d
00000250: 188a 79bf 09b4 cdbf ec5b 833e 3932 763e
00000260: 5bfa e53d 6628 e93e 6d99 5d3e 1c2e ccbf
00000270: ecd3 393f 6590 9e3d be0b 7c3e 3e07 f83e
00000280: 585b 94bf 2898 c5bf 2335 0b3f d7c9 db3e
00000290: 0bcb c8bf e3e8 ebbd 7843 df3d b250 a43e
000002a0: f91c ac3e f80f 91bf 9963 673e 7541 adbe
000002b0: ba6c 693d 524b bb3e 0b72 a13f 4ffa c63e
000002c0: 22e3 ae3e 727d e03f 3aa3 10bd 2849 0d3f
000002d0: 6d49 bdbf 963f dbbf 93d6 6a3e 7f62 46be
000002e0: 8896 223e f946 133e 11a4 bfbf 6239 a9be
000002f0: dcf8 e73e bf09 f93e 98e4 77bf ef02 563f
00000300: 9ce5 413f 5150 103f 1fb8 a73e d72e 7ebd
00000310: 9689 773f a834 8b3e a032 ba39 29ab d1be
00000320: 7c91 fd3e 8cd3 a3be 0d59 283e 7a0c a43e
00000330: e022 25bf 19ec 65bd d31b 0dc0 5d6a 43bd
00000340: d970 503d d719 50bc a2be 98bd 8842 8e3e
00000350: 6146 ef3e f002 e83e 31f9 653f 3730 afbf
00000360: b79a 8ebf 6cc3 f5bf c6ac 4a3f 5b56 48bf
00000370: 9354 083e 32e3 523d 2843 f73e 5ef7 bb3d
00000380: 1bcd 023e d19c 7f3e 7ece 03c0 7d3b 42bf
00000390: 0e19 febe 3edf dc3e 6bce 0cbf 194a 3bbe
000003a0: 5fa3 93bf a925 d1bf accd 683f d7af cc3e
000003b0: f5ac 9cbf abfb e3bf 356f 433e ba84 bbbf
000003c0: a821 683f e4d3 7bbf b099 c13e b76f 73bf
000003d0: 54f3 86be ca44 f3bf a95d 9e3e acab d43e
000003e0: e473 c5be c584 e73e 3caf 8dbd dd92 4c3f
000003f0: a33b 22bf 80fe 99bf 32a2 243f 9e71 0c3e
-0.7058326 0.59118253 -0.8943152 -0.51091486 0.9453659 -0.35516983 0.274903 0.51452243
-1.2304475 0.32792956 -0.51911986 0.041395675 -0.9394929 0.15684761 0.3420419 0.19084106
0.25256664 -1.8726612 0.22522545 -0.7195774 -0.46653625 0.2730843 0.2535186 0.5183368
0.35059208 -0.32540262 0.18528365 0.66443706 1.4842587 0.287066 -1.0651177 0.24781346
-0.04565347 0.13769543 -1.45787 -2.4502504 0.22308376 0.16511768 0.1959108 -1.5180767
0.15158743 0.5669949 -0.565888 0.46982783 0.24966758 0.35495564 -0.546843 -1.1135148
0.9047177 -0.6901682 -2.163035 -1.7656211 0.12779143 0.32555333 0.2354621 0.3232802
0.35583928 0.11494853 -1.2782172 0.21217595 -0.14322782 0.3784369 0.08076394 -1.7331344
-0.199575 -0.27185157 0.3711865 1.4674653 -2.327326 0.4277428 0.16810237 -1.6312275
-0.2029343 0.16076277 0.1726738 0.50896406 0.58104855 1.0725731 0.058962103 -1.6873093
-0.06413777 0.4697929 0.77745277 -1.310368 0.65046495 -0.1016127 -1.9906493 0.108537965
0.75939995 0.09979526 -0.31117782 0.7806009 -1.4961078 -1.9313463 0.6038595 0.36383042
0.3294618 0.07981709 0.10673324 0.2523261 0.4993922 -1.5270416 -0.60836625 0.3336396
-0.0919071 2.0760877 0.06786346 0.27975494 0.6127669 -0.27731207 0.4940855 -0.0062748515
-1.4304371 -0.6713312 0.33678305 -0.494605 0.45769423 0.550926 0.43271273 -1.9101435
0.13818297 -1.1941521 -0.0015890241 -0.9531804 1.6945122 0.473087 -0.051274892 0.1656557
0.046600487 0.15510379 0.12697558 -0.88334584 -1.380236 0.67070615 0.29178163 0.37543318
3.1699817 0.66681355 0.29833752 0.025216013 0.13322254 0.19062936 0.39838082 -0.088936
0.60728645 -0.81010306 -0.99823713 0.111374795 -0.9747634 -1.6070567 0.25656068 0.24042596
0.11229392 0.45538634 0.21640559 -1.5951571 0.7258899 0.07742385 0.24613854 0.48443025
-1.1590376 -1.5437059 0.54377955 0.4292743 -1.5686964 -0.11519029 0.109015405 0.32092816
0.33615854 -1.1332998 0.22596587 -0.33839002 0.056988455 0.36580902 1.2612928 0.38862845
0.34157664 1.7538283 -0.035311915 0.5518975 -1.4788033 -1.712878 0.22933416 -0.19373511
0.15877736 0.14382543 -1.4971944 -0.33051592 0.45307052 0.48640248 -0.9683318 0.83598226
0.7574098 0.56372553 0.3275766 -0.06205639 0.96694314 0.2718861 0.00035514403 -0.40950897
0.49525058 -0.31997335 0.1644022 0.3204077 -0.6450634 -0.056133363 -2.2048233 -0.047708858
0.05088887 -0.012701473 -0.07458235 0.27785134 0.46733382 0.4531474 0.8983336 -1.3686589
-1.1140965 -1.9200263 0.7916988 -0.7825677 0.13313513 0.0514862 0.48293424 0.09178041
0.12773554 0.24962164 -2.0594783 -0.7587202 -0.4962849 0.4313907 -0.5500247 -0.18289985
-1.1534232 -1.6339618 0.9093883 0.39977905 -1.2240282 -1.7811178 0.19085391 -1.464988
0.90676355 -0.98370194 0.37812567 -0.9509234 -0.2635752 -1.9005368 0.30930832 0.41537225
-0.3856498 0.45218483 -0.06918189 0.79911596 -0.6337225 -1.2030792 0.6430999 0.13715217

fc3.bias f4 [6]
00000000: f919 fe3c d946 8c3d d333 1e3e d586 073e
00000010: 960a 3a3e 68ec 18c0
0.031018244 0.068494506 0.15449457 0.13235028 0.181681 -2.389429
