legendary.pt (torch, 32423 bytes, 6 tensors)

fc1.weight f4 [64, 50]
0	0x3d3e935b	0.046527248
1	0x3c1ae504	0.009454016
2	0xbec702eb	-0.38869414
3	0x3dd162c9	0.1022392
4	0x3db5b264	0.08871916
5	0xbefa4fc8	-0.48888993
6	0xbf23dff5	-0.64013606
7	0x3e9e0c2f	0.3086867
8	0xbe4a14ac	-0.19734448
9	0x3d39b0e3	0.045334708
10	0xbe2ba9a1	-0.16763927
11	0xbf3ba2d6	-0.7329534
12	0x3ed7eb78	0.42171836
13	0xbdd07467	-0.10178452
14	0xbee34433	-0.4438797
15	0xbd5ebe26	-0.05438056
16	0x3c750e5c	0.014957037
17	0xbf2d23ad	-0.6763256
18	0x3e717c8c	0.23582667
19	0x3d4bc05b	0.04974399
20	0x3ea53ee0	0.32274532
21	0x3e512558	0.20424402
22	0x3e32d39b	0.17463534
23	0x3e2433e3	0.16035418
24	0xbe887f1e	-0.26659483
25	0x3e42ccb6	0.19023404
26	0xbf17148f	-0.59015745
27	0xbea58d29	-0.3233426
28	0xbe2259ab	-0.15854518
29	0x3d521c11	0.051296297
30	0x3da5b547	0.080912165
31	0xbe9a727b	-0.30165467
32	0xbc117346	-0.008877581
33	0xbde02d5d	-0.10946152
34	0x3d023f01	0.031798366
35	0x3d80b474	0.06284419
36	0x3dc6b3b6	0.09702246
37	0xbcf259a5	-0.029583761
38	0xbe055dbc	-0.13024038
39	0xbea92438	-0.33035445
40	0xbf06cbfc	-0.52655005
41	0xbf88f4fe	-1.0699766
42	0xbebefaf6	-0.37300843
43	0x3f6f0340	0.93364334
44	0xbe83ea59	-0.2576473
45	0xbef2779b	-0.47356877
46	0x3d92b3d9	0.071632095
47	0xbdb1c32b	-0.086798035
48	0xbf0aca0c	-0.5421455
49	0x3d141f68	0.036162764
50	0x3e50709e	0.2035546
51	0xbda13e43	-0.078732036
52	0x3f22cfdf	0.63598436
53	0xbe3d955c	-0.18514007
54	0xbcb6da55	-0.022320906
55	0xbe815b4a	-0.2526496
56	0x3ea66f9d	0.3250703
57	0xbf19f007	-0.6013188
58	0x3ea7e21c	0.32789695
59	0xbdf561d9	-0.119815536
60	0xbd8fd7d2	-0.07023586
61	0x3ea6e4c4	0.3259641
62	0x3ec0ae13	0.37632808
63	0x3e2b142b	0.16706912
64	0x3ee1a7cd	0.44073334
65	0xbdda7ffe	-0.10668944
66	0x3e86576a	0.26238567
67	0xbeeb22ca	-0.4592498
68	0xbe5ea8e6	-0.21744117
69	0xbf56a010	-0.83837986
70	0x3e912234	0.28346407
71	0xbea4073d	-0.32036772
72	0x3f19d97d	0.60097486
73	0xbdea35eb	-0.11436065
74	0x3e065db9	0.1312169
75	0x3e6e5ddb	0.2327799
76	0xbea078de	-0.31342214
77	0xbeee8269	-0.4658387
78	0xbe844f50	-0.2584176
79	0x3e83e7b5	0.25762716
80	0x3e0ca3c3	0.13734345
81	0x3e6231c5	0.22089298
82	0x3db5d87f	0.08879184
83	0xbd937aba	-0.072011426
84	0xbeefbe78	-0.46825004
85	0x3f39162a	0.72299445
86	0x3ee725c8	0.45146012
87	0xbe9ceae0	-0.30647945
88	0xbf2d82d8	-0.67777777
89	0x3cf1c0f5	0.029510954
90	0x3f0346e8	0.5128007
91	0x3dfa7e7c	0.12231156
92	0x3c4e6599	0.012597465
93	0x3f2200a0	0.63282204
94	0xbe2422cf	-0.16028903
95	0xbe681c76	-0.22667107
96	0xbc1370d3	-0.008999067
97	0x3deffc39	0.117180295
98	0x3c15e576	0.009148946
99	0x3e55e459	0.20887889
100	0x3e7f3787	0.24923526
101	0x3eca2be4	0.3948661
102	0x3e6a726a	0.22895208
103	0xbc943162	-0.018089954
104	0x3e13ccd0	0.14433599
105	0x3ed60d8b	0.41807207
106	0xbea8d7a4	-0.3297702
107	0xbc68f816	-0.014219305
108	0xbec387fe	-0.3818969
109	0xbd9e8c2a	-0.07741578
110	0x3ecdc61a	0.40190202
111	0xbe8761fd	-0.26441947
112	0x3ecec56d	0.40385
113	0x3e0ae8fb	0.13565437
114	0xbead10e0	-0.33801937
115	0xbef476ea	-0.47746974
116	0xbdeb2f0e	-0.11483584
117	0xbe53383a	-0.20626917
118	0xbea2aefa	-0.31774122
119	0x3d84ea69	0.06490023
120	0x3f1290f8	0.57252455
121	0x3e9317bc	0.28729045
122	0x3d8e43a6	0.06946497
123	0xbc4dcecf	-0.012561514
124	0xbea196d0	-0.31560373
125	0x3e325b44	0.17417628
126	0xbe93793a	-0.28803426
127	0xbef72b7e	-0.4827537
128	0x3da31d60	0.07964587
129	0x3ef972d8	0.4872043
130	0x3de2e4d5	0.110788025
131	0xbeda31c1	-0.42616084
132	0x3ece93b6	0.4034707
133	0xbd1285f8	-0.035772294
134	0x3ca3242c	0.019914709
135	0x3eec8f3d	0.46203032
136	0x3ace275a	0.001572828
137	0xbf1c3785	-0.61022216
138	0x3cf65cf2	0.030073617
139	0xbe98b320	-0.29824162
140	0xbe0fee64	-0.14055783
141	0xbf1c279d	-0.60997945
142	0xbe7d1bcb	-0.24717633
143	0x3f0e5f70	0.55614376
144	0xbd509b8b	-0.050929587
145	0xbf142b32	-0.5787841
146	0xbe526984	-0.20548064
147	0xbe666e13	-0.22502927
148	0x3dd1b260	0.102391005
149	0xbecfb2e3	-0.40566167
150	0xbdbbab45	-0.091635264
151	0xbddfc6f2	-0.10926618
152	0x3ea21aa0	0.31660938
153	0xbe70ae5b	-0.23504011
154	0x3e5b956f	0.21443723
155	0xbeac5436	-0.33657998
156	0xbefc07e1	-0.4922476
157	0x3f0bb308	0.54570055
158	0x3e4ffc50	0.20311093
159	0x3dc96088	0.09832865
160	0xbcabc25b	-0.0209667
161	0x3e1e9fca	0.15490642
162	0xbed3e9e3	-0.4138938
163	0x3e4c606c	0.19958657
164	0xbe2a4f8e	-0.1663191
165	0xbb2eff97	-0.0026702636
166	0xbe1ba19f	-0.15198372
167	0xbd6c6fc6	-0.057723783
168	0xbe0126f9	-0.12612523
169	0xbe241379	-0.16023053
170	0xbec2d6d2	-0.3805452
171	0x3f2147ed	0.63000375
172	0x3e1e034f	0.1543095
173	0xbf07ba21	-0.53018385
174	0x3ddd6160	0.108095884
175	0xbd78bcee	-0.060727052
176	0xbea21749	-0.3165839
177	0x3d465b28	0.048426777
178	0x3d3f0d18	0.046643347
179	0x3d88bd4b	0.0667673
180	0xbecc24d3	-0.39871845
181	0x3dbbdf6c	0.09173474
182	0x3de76c14	0.11299911
183	0x3ed834af	0.42227694
184	0xbf2fafbb	-0.6862752
185	0x3da47e4d	0.080319025
186	0xbeb05fc1	-0.34448054
187	0xbea3e295	-0.32008806
188	0x3eba235a	0.36355096
189	0xbf3dfbfc	-0.7421262
190	0x3ec01798	0.37518
191	0xbe9308cf	-0.28717658
192	0xbef6405a	-0.4809597
193	0x3df9cfef	0.12197863
194	0x3ec605f1	0.38676408
195	0xbdd0fb4c	-0.10204181
196	0x3e2f38a8	0.17111456
197	0x3ee97c35	0.45602575
198	0xbe28bd85	-0.16478546
199	0xbd2df68d	-0.042471457
200	0xbde30e1b	-0.11086675
201	0x3da5a3cc	0.080878824
202	0xbd55a283	-0.052156936
203	0x3e4c263e	0.19936463
204	0x3db15e78	0.086605966
205	0xbe2d548b	-0.16926782
206	0x3d43a43c	0.047764048
207	0x3d3bd7cd	0.0458601
208	0x3e94f736	0.29094857
209	0x3ce2634b	0.027635237
210	0xbdda2461	-0.1065147
211	0x3d694575	0.056951005
212	0xbeb1eb8b	-0.34750018
213	0x3df579a6	0.11986093
214	0x3cb8d1be	0.02256095
215	0x3f050f18	0.51976156
216	0xbe8b9609	-0.27262905
217	0xbf0510a1	-0.519785
218	0x3e86f3cb	0.26357874
219	0x3e5f2d52	0.21794632
220	0xbf3ceb35	-0.737964
221	0xbde1a2ae	-0.11017357
222	0xbf0189f6	-0.50601137
223	0xbe9baa30	-0.3040328
224	0x3e91ceee	0.28478187
225	0xbe9659bd	-0.2936534
226	0xbeba4ec4	-0.36388218
227	0xbe6745f9	-0.22585286
228	0xbdf9e745	-0.12202314
229	0xbefc4804	-0.49273694
230	0xbeb48a2a	-0.3526166
231	0x3e8aff7e	0.2714805
232	0xbf21503a	-0.6301304
233	0x3dff4fd0	0.12466395
234	0xbf024bfa	-0.5089718
235	0xbe804d86	-0.25059146
236	0xbe0ff384	-0.14057738
237	0xbe004eac	-0.12530011
238	0xbece1f86	-0.40258425
239	0xbe504b39	-0.20341195
240	0xbec2e9a6	-0.38068885
241	0x3eadf307	0.33974478
242	0xbeed7039	-0.46374682
243	0xbe47b9f0	-0.19504523
244	0x3eb0bb6b	0.3451799
245	0xbe01f687	-0.12691699
246	0x3e554004	0.20825201
247	0x3f21f981	0.6327134
248	0x3dd342f5	0.103155054
249	0x3e75eaa7	0.24015294
250	0x3ecaa2fc	0.39577472
251	0xbe89d9ca	-0.26923972
252	0x3e63b5c6	0.2223731
253	0xbf84a28b	-1.0362104
254	0xbd0a112b	-0.03370778
255	0x3eb20078	0.34765983

fc1.bias f4 [64]
0	0xbeb35db3	-0.35032424
1	0xbebf88f3	-0.3740917
2	0xbf0042d9	-0.50102
3	0xbf061e93	-0.523904
4	0xbe8471ca	-0.25868064
5	0xbe3ddabb	-0.1854047
6	0xbe72e32e	-0.23719475
7	0xbedd33dd	-0.4320363
8	0xbe0aa60b	-0.13539903
9	0xbea54a0d	-0.3228306
10	0xbf1d1702	-0.6136323
11	0xbe596976	-0.21231636
12	0xbe96f0c5	-0.29480568
13	0xbea117f1	-0.31463578
14	0xbeb7489a	-0.35797578
15	0xbeae6e4c	-0.34068525
16	0xbdf33777	-0.118758135
17	0xbeafeabc	-0.34358776
18	0xbf03abbf	-0.5143394
19	0xbefaf4ed	-0.4901499
20	0xbeca3260	-0.39491558
21	0xbe2fe8e5	-0.17178686
22	0x3e896a0a	0.26838714
23	0x3ed4100c	0.41418493
24	0xbe8ddb78	-0.27706504
25	0xbeee1d70	-0.46506834
26	0xbe5c096c	-0.21487969
27	0xbea83cff	-0.32859036
28	0xbf088eea	-0.5334307
29	0xbee20632	-0.44145352
30	0xbe966f0a	-0.2938159
31	0x3f1c2911	0.6100016
32	0xbdfaade4	-0.12240198
33	0xbedbcf9d	-0.42931834
34	0xbda616f0	-0.08109844
35	0xbea2138e	-0.31655544
36	0xbefd3b55	-0.4945933
37	0x3f0e243e	0.5552405
38	0xbe88d7c4	-0.26727116
39	0xbf05bfde	-0.5224589
40	0xbe98e8b8	-0.2986505
41	0xbf01b050	-0.50659657
42	0xbee30351	-0.44338468
43	0xbeb7a63b	-0.3586901
44	0xbf01526f	-0.5051641
45	0xbee626e5	-0.4495155
46	0xbe7773b0	-0.24165225
47	0xbd7be76d	-0.0615
48	0xbcfa4a98	-0.030553147
49	0x3f3a52d1	0.7278262
50	0xbeba8a25	-0.3643352
51	0xbec2dbb7	-0.38058254
52	0xbf066704	-0.5250094
53	0xbe194da2	-0.14971021
54	0xbf0bce6a	-0.5461184
55	0xbcd744e4	-0.026277967
56	0xbe8e5cc1	-0.2780514
57	0xbef48dee	-0.47764534
58	0xbf29647b	-0.66168946
59	0xbf06d6c3	-0.5267145
60	0xbed7e091	-0.42163518
61	0xbe49f5ae	-0.19722626
62	0xbecb837e	-0.39748758
63	0xbeb63074	-0.35583842

fc2.weight f4 [64, 64]
0	0x3f0a4a69	0.5401979
1	0x3f41cf9e	0.75707424
2	0x3dc90890	0.09816086
3	0x3ee24f6e	0.44201225
4	0x3e555357	0.20832573
5	0x3ea59ba8	0.3234532
6	0x3de15413	0.11002364
7	0x3ec01f73	0.37523994
8	0x3f15cab2	0.58512414
9	0x3eb5dd1a	0.3552025
10	0x3ee4db2f	0.44698474
11	0x3f126f3d	0.57200986
12	0x3edc52be	0.43031877
13	0x3f19e2dd	0.6011179
14	0x3e980c28	0.29696774
15	0x3e6b1313	0.22956495
16	0x3f193d18	0.59858847
17	0x3ee686c8	0.45024705
18	0x3ef86296	0.48512715
19	0xbd889007	-0.06668096
20	0xbd03a9ac	-0.032144234
21	0x3dfc60bd	0.12323139
22	0x3f71a559	0.94392926
23	0x3fc5eb18	1.546237
24	0x3f0b6044	0.54443765
25	0x3f0252e6	0.5090774
26	0x3f2d78e3	0.67762583
27	0x3f4017b6	0.7503618
28	0x3e80608a	0.25073653
29	0x3def933f	0.11698007
30	0x3eeea276	0.46608323
31	0xbf4923c8	-0.7857022
32	0x3f24b302	0.64335644
33	0x3f1694dc	0.5882089
34	0x3dcd8b3e	0.10036324
35	0x3e4d13e7	0.20027123
36	0x3ecbf850	0.39837885
37	0x3fbeba39	1.4900581
38	0x3f1dca62	0.61636937
39	0x3e189c99	0.14903487
40	0x3e84c58b	0.25931963
41	0x3ed6c2e2	0.4194556
42	0x3ecc2e4e	0.39879078
43	0x3f3bb61d	0.7332476
44	0x3f2997fe	0.66247547
45	0x3ea00961	0.31257156
46	0x3f11845e	0.568426
47	0x3f2a82b5	0.66605693
48	0x3ef62f3f	0.4808292
49	0xbdd3be57	-0.10339039
50	0x3ee74c98	0.45175624
51	0xbdab7143	-0.08371212
52	0x3e85e988	0.26154733
53	0x3e8f2098	0.27954555
54	0x3ee93b2f	0.45552966
55	0x3f176b66	0.5914825
56	0x3ece0b6a	0.40243083
57	0x3e6eed79	0.23332776
58	0x3ee37764	0.44427025
59	0x3f2b358f	0.668786
60	0x3f12b468	0.5730653
61	0x3ecc17a6	0.39861792
62	0x3ecb3f9b	0.39696965
63	0x3f21316d	0.6296604
64	0xbea252db	-0.3170384
65	0xbf5a72e3	-0.85331553
66	0xbe865e14	-0.2624365
67	0xbf1d9078	-0.61548567
68	0xbe4c1e4c	-0.19933432
69	0xbef9a1c1	-0.4875622
70	0xbdc654b7	-0.09684127
71	0xbec3d0a2	-0.38245112
72	0xbed74c26	-0.42050284
73	0xbf67815b	-0.90431756
74	0xbe923066	-0.2855255
75	0xbec9a3d4	-0.39382803
76	0xbebe30ce	-0.3714661
77	0xbf3a013f	-0.7265815
78	0xbd6e4927	-0.058175232
79	0xbdc71c57	-0.09722202
80	0xbf00e8f9	-0.5035549
81	0xbed22122	-0.41040903
82	0xbee1e014	-0.4411627
83	0x3c15b3e5	0.0091371285
84	0xbe7806d2	-0.24221352
85	0x3d9beb92	0.07613291
86	0xbf0e02fb	-0.554733
87	0xbf934001	-1.1503907
88	0xbec8c82d	-0.39215222
89	0xbee7f7d2	-0.4530626
90	0xbef563d4	-0.47927725
91	0xbe8eade7	-0.27867052
92	0xbe03b134	-0.12860566
93	0x3d94a12f	0.07257306
94	0xbec85449	-0.39126804
95	0x3f2e7f61	0.68163115
96	0xbf5c3e11	-0.86032206
97	0xbef51692	-0.47868782
98	0xbea0d87e	-0.3141517
99	0xbe893aed	-0.2680277
100	0xbdea4c1d	-0.11440299
101	0xbfb62209	-1.4229137
102	0xbf2499d6	-0.64297235
103	0xbddb50c4	-0.10708764
104	0xbd23601e	-0.039886586
105	0xbeb8c761	-0.36089614
106	0xbec31d84	-0.38108456
107	0xbf051e1b	-0.5199906
108	0xbeea0c2a	-0.45712405
109	0xbe705866	-0.23471221
110	0xbf41bb51	-0.7567645
111	0xbeb81f22	-0.35961252
112	0xbe87efad	-0.26550046
113	0x3eb9c225	0.36280933
114	0xbf13bd7b	-0.57711
115	0x3e41d1e1	0.18927719
116	0xbe694f71	-0.2278421
117	0x3ceb7b0c	0.028745197
118	0xbeb32172	-0.34986454
119	0xbece03e7	-0.40237352
120	0xbdafa03f	-0.085754864
121	0xbd8131d9	-0.06308336
122	0xbeaf741e	-0.34268278
123	0xbf303561	-0.6883145
124	0xbeb41aa4	-0.35176575
125	0xbe35a511	-0.17738749
126	0xbeeb8b5e	-0.46004766
127	0xbea7013c	-0.3261813
128	0x3f022e65	0.5085204
129	0x3f37cdd6	0.71798456
130	0x3e06c379	0.13160504
131	0x3f2476f5	0.64244014
132	0x3e958a0e	0.2920689
133	0x3f089577	0.53353065
134	0x3db83f40	0.08996439
135	0x3ed77974	0.4208485
136	0x3ed8db58	0.42354846
137	0x3ed65b09	0.4186633
138	0x3ea3637d	0.3191184
139	0x3ed78ea1	0.42101005
140	0x3ecf38e1	0.40473083
141	0x3f0bc2bc	0.54594016
142	0x3e8dfdc6	0.27732676
143	0x3df80578	0.12110418
144	0x3f3773a3	0.7166082
145	0x3ebcc5d7	0.3686969
146	0x3ebef9e0	0.37300014
147	0xbd3ef938	-0.046624392
148	0x3dbede8a	0.0931979
149	0x3d2c642e	0.042087726
150	0x3f41e0fc	0.75733924
151	0x3f98256b	1.1886419
152	0x3eccedd6	0.40025204
153	0x3f316356	0.692922
154	0x3f080975	0.5313943
155	0x3eeb2bd1	0.45931867
156	0x3e615782	0.22006038
157	0x3c27ea03	0.010248664
158	0x3eec5541	0.46158794
159	0xbf1ea1a2	-0.6196538
160	0x3f62e3af	0.8862867
161	0x3f12fb04	0.5741427
162	0x3e411300	0.18854904
163	0x3e6071d2	0.21918419
164	0x3ebdf36d	0.37099782
165	0x3fb26b47	1.3938988
166	0x3f3289f9	0.6974178
167	0x3dfc938f	0.12332832
168	0x3e2fd4e6	0.17171058
169	0x3e820f87	0.2540247
170	0x3edc27eb	0.42999205
171	0x3f26340d	0.64923173
172	0x3f205ada	0.6263863
173	0x3e80f95e	0.25190252
174	0x3f03ad75	0.5143655
175	0x3f1f020f	0.62112516
176	0x3e7ab1b5	0.24481852
177	0xbe5aee91	-0.21380068
178	0x3eea24b8	0.4573114
179	0xbd286785	-0.04111435
180	0x3ed3a3ba	0.4133585
181	0x3e243de6	0.16039237
182	0x3e87dd90	0.26536226
183	0x3f038fab	0.51391095
184	0x3e8522d0	0.26003122
185	0x3e8a2db4	0.26987994
186	0x3eae4d03	0.3404313
187	0x3f1af2c3	0.60526675
188	0x3ee4cd08	0.44687676
189	0x3eb7ea9a	0.35921174
190	0x3eb8265c	0.35966766
191	0x3ee8a652	0.45439392
192	0x3e181061	0.14849998
193	0x3f0ec266	0.5576538
194	0x3e890eaf	0.26769015
195	0x3f0aa29e	0.54154384
196	0x3e888372	0.26662785
197	0x3d81b68b	0.063336454
198	0x3dad8b24	0.084738046
199	0x3efaf9b6	0.4901864
200	0x3ebb14c6	0.36539286
201	0x3e084c9a	0.13310471
202	0x3ea02afa	0.3128279
203	0x3dcef737	0.10105746
204	0x3ee26601	0.44218448
205	0x3edc8987	0.43073675
206	0xbca5eba0	-0.020253956
207	0x3d9784d1	0.073983796
208	0x3ef3a451	0.475863
209	0x3e936932	0.28791195
210	0x3e852b3c	0.26009548
211	0x3b39ecfe	0.0028370018
212	0xbe441a8e	-0.19150755
213	0xbdfa6410	-0.12226117
214	0x3fb63d66	1.4237487
215	0x400e51a6	2.2237334
216	0x3f1fd26c	0.62430453
217	0x3e376821	0.17910816
218	0x3eb1b03c	0.3470477
219	0x3f21b374	0.6316445
220	0x3ee43058	0.44568133
221	0xbe4c6805	-0.19961555
222	0x3e9b4aa8	0.30330396
223	0xbf2b8063	-0.6699278
224	0x3ed486c7	0.41509077
225	0x3ee7b606	0.4525606
226	0xbe00ff02	-0.12597278
227	0x3e8874a3	0.26651487
228	0x3e2b6f7a	0.16741744
229	0x40034316	2.0509696
230	0x3f100979	0.56264454
231	0xbc7ada86	-0.015310889
232	0x3e50819d	0.20361944
233	0x3ee98506	0.456093
234	0x3e82c571	0.2554126
235	0x3f2c0e81	0.6720963
236	0x3e2141c1	0.1574774
237	0x3eb5b42a	0.35489017
238	0x3eb693f1	0.35659745
239	0x3ec9baee	0.3940043
240	0x3e1e9ef8	0.1549033
241	0xbe3f4696	-0.1867927
242	0xbdc15173	-0.09439363
243	0xbd866ed9	-0.06564111
244	0xbe174f67	-0.14776383
245	0xbda45a58	-0.08025044
246	0x3effefb1	0.49987558
247	0x3ee16b5d	0.44027224
248	0x3eaf2cf9	0.34214
249	0xbe313ba2	-0.17307904
250	0x3e8fb085	0.2806436
251	0x3ef55407	0.4791567
252	0x3e511236	0.20417103
253	0x3e24114f	0.16022228
254	0x3ea1bee5	0.31590953
255	0x3e742075	0.23840506

fc2.bias f4 [64]
0	0xbf4a5dd9	-0.7904945
1	0x3f42e666	0.7613281
2	0xbf268283	-0.65042895
3	0xbf00ee3c	-0.50363517
4	0xbf2f9bdb	-0.6859719
5	0xbf2be654	-0.6714833
6	0xbe276ac7	-0.16349326
7	0x3c541b03	0.012945893
8	0x3e8d52b5	0.27602163
9	0x3f4fe24b	0.8120467
10	0xbe04f1c4	-0.12982851
11	0xbf3dbb5c	-0.7411401
12	0x3f3e062c	0.7422817
13	0xbf2f165d	-0.683935
14	0x3f65ad28	0.8971734
15	0x3f473c39	0.7782627
16	0xbf3546d2	-0.7081119
17	0xbf09addb	-0.5378091
18	0xbe12bc61	-0.14329673
19	0xbdbdda96	-0.092702076
20	0xbf323a3c	-0.6962011
21	0xbf4061a9	-0.7514902
22	0xbf32eacb	-0.69889516
23	0xbf192cde	-0.59834087
24	0xbf0f2112	-0.55909836
25	0xbf283cf4	-0.6571801
26	0x3f592471	0.8482123
27	0x3f3212ce	0.69559944
28	0xbf205298	-0.6262603
29	0x3f5544f8	0.8330836
30	0x3f641b82	0.89104474
31	0x3f041909	0.516007
32	0xbf1de859	-0.6168266
33	0xbf1def31	-0.616931
34	0xbf422593	-0.75838584
35	0xbf1d5fe3	-0.61474437
36	0x3f2b37c2	0.66881955
37	0xbf183ddb	-0.59469384
38	0x3e00e836	0.12588581
39	0xbf1f9530	-0.6233702
40	0xbf5ad9ac	-0.8548839
41	0xbdefdd6a	-0.11712153
42	0x3f53e035	0.8276399
43	0x3e5d80dd	0.21631189
44	0x3f75e16e	0.96047103
45	0x3f58ba5c	0.8465936
46	0x3f0fc75b	0.5616357
47	0xbf3f111b	-0.74635476
48	0xbf256fb5	-0.64623576
49	0xbdd481dd	-0.10376332
50	0xbf28692e	-0.6578549
51	0x3f495c95	0.78656894
52	0x3efe626f	0.49684474
53	0xbf44008f	-0.7656335
54	0xbf3ecd24	-0.7453177
55	0xbf01e022	-0.50732625
56	0xbf3c19fe	-0.7347716
57	0xbe154408	-0.14576733
58	0xbf1868a0	-0.59534645
59	0x3f0ec818	0.5577407
60	0xbefa4633	-0.48881683
61	0xbf2f81bb	-0.6855733
62	0xbf365ad2	-0.7123233
63	0xbf1d3992	-0.6141597

fc3.weight f4 [2, 64]
0	0xbf69004a	-0.91016066
1	0x3fa1841f	1.2618445
2	0xbe84be9e	-0.2592668
3	0xbe8369b1	-0.25666574
4	0xbf4a9c89	-0.79145104
5	0xbecb7192	-0.39735085
6	0xbd958161	-0.07300068
7	0x3fb0f5e4	1.382504
8	0x3f8473f4	1.0347886
9	0x3fb8a669	1.4425784
10	0x3c07b15d	0.008282033
11	0xbf34c0e2	-0.70606816
12	0x3f23298b	0.63735265
13	0xbef300eb	-0.47461638
14	0x3f92ae2f	1.1459407
15	0x3f601438	0.8753085
16	0xbf172109	-0.5903478
17	0xbf02c673	-0.5108406
18	0xbe89e462	-0.26932055
19	0x3e21d7f1	0.15805031
20	0xbf12d01c	-0.573488
21	0xbf32c021	-0.69824415
22	0xbf032614	-0.5122998
23	0xbeedc13b	-0.46436486
24	0xbefb589c	-0.4909104
25	0xbed36f0b	-0.41295657
26	0x3f653c09	0.8954473
27	0x3f823194	1.017138
28	0xbeb10661	-0.3457518
29	0x3f60572c	0.87633014
30	0x3f8aef96	1.0854366
31	0x3f8100e3	1.0078396
32	0xbf0293dd	-0.5100687
33	0xbf12a019	-0.5727554
34	0xbf5c274b	-0.85997456
35	0xbf0b7b2e	-0.5448483
36	0x3ec6b55f	0.3881025
37	0xbedabe04	-0.42723095
38	0x3fe08fc9	1.754388
39	0xbec112f4	-0.37709773
40	0xbf89571c	-1.0729709
41	0x3c02e923	0.007990154
42	0x3f61bc28	0.8817773
43	0x3f57bd1c	0.84272933
44	0x3f85c461	1.0450555
45	0x3f58936a	0.84599936
46	0x3f5b4910	0.8565836
47	0xbed2172c	-0.41033304
48	0xbece172d	-0.40252057
49	0x3d7d561c	0.0618497
50	0xbefb4f22	-0.4908381
51	0x3f489b95	0.783624
52	0x3fcc7407	1.5972909
53	0xbf91e446	-1.1397789
54	0xbf57d42a	-0.8430811
55	0xbedaf66e	-0.42766136
56	0xbf622807	-0.88342327
57	0xbda8c3e5	-0.08240489
58	0xbf37cac5	-0.71793777
59	0x3fd2c7a0	1.6467171
60	0xbe3bbf27	-0.18334638
61	0xbf0763e0	-0.5288677
62	0xbf001047	-0.5002484
63	0xbea4934d	-0.32143632
64	0x3f8aec82	1.0853426
65	0xbf9d0ab6	-1.2268894
66	0x3ecf212c	0.40454996
67	0x3e4411c5	0.19147404
68	0x3f4b8c2e	0.7951077
69	0x3f10130d	0.5627907
70	0xbd5b47fe	-0.053535454
71	0xbfbe37fc	-1.4860835
72	0xbf819446	-1.0123374
73	0xbfa8ff84	-1.3202977
74	0xbcc918eb	-0.024548015
75	0x3f656c3a	0.89618266
76	0xbf282787	-0.65685314
77	0x3ed93c4d	0.42428818
78	0xbf901047	-1.1254967
79	0xbf69f7c0	-0.9139366
80	0x3ec0b0ff	0.37635037
81	0x3eab7e23	0.33494672
82	0x3e17691a	0.14786187
83	0xbdc5c06a	-0.09655841
84	0x3ede7c76	0.4345433
85	0x3f22a542	0.63533413
86	0x3ee85d87	0.45383856
87	0x3f0a3e18	0.54001
88	0x3f03f475	0.51544887
89	0x3ec306bc	0.38091075
90	0xbf51575c	-0.81773925
91	0xbf828825	-1.0197798
92	0x3f054257	0.5205435
93	0xbf62cca5	-0.8859351
94	0xbfa0e4ed	-1.2569863
95	0xbf80fdff	-1.0077513
96	0x3f0122ab	0.50443524
97	0x3eb08fdc	0.34484756
98	0x3f80ec97	1.0072201
99	0x3f1b565f	0.60678667
100	0xbebd9dae	-0.37034363
101	0x3e8a1af6	0.26973695
102	0xbfe5f2ee	-1.7964761
103	0x3ea051e4	0.31312478
104	0x3f997bf9	1.1990958
105	0xbd2dd085	-0.042435188
106	0xbf497c8d	-0.78705674
107	0xbf45dfe6	-0.77294767
108	0xbf7e27bc	-0.9927938
109	0xbf47a44e	-0.77985084
110	0xbf7372d5	-0.95097095
111	0x3f1ffc76	0.624946
112	0x3f0802a5	0.53129035
113	0x3d7de2bc	0.06198381
114	0x3ee59fb0	0.44848394
115	0xbf61cf32	-0.8820678
116	0xbfc72c4b	-1.5560392
117	0x3f8031c8	1.0015192
118	0x3f5bea0d	0.8590401
119	0x3ed02558	0.4065349
120	0x3f6069e2	0.87661564
121	0xbd8054ce	-0.06266175
122	0x3f475467	0.7786316
123	0xbfcf3150	-1.6186924
124	0x3e9ecd8d	0.31016198
125	0x3f1c442c	0.6104152
126	0x3ec804c4	0.39066136
127	0x3e6fcad2	0.23417214

fc3.bias f4 [2]
0	0x3f126f8e	0.5720147
1	0xbf0c9ccb	-0.5492675
