mtggenerator.pt (torch, 997750 bytes, 208 tensors)

token_embedding_table.weight f4 [96, 32]
00000000: f2f1 dbbe e268 d9bf 1e43 ba3e cddd 62bf
00000010: 4970 0840 a283 b33f 824f c3bf 1c98 d33f
00000020: f338 6abf 6763 0bc0 167f 31be 2636 11bc
00000030: ade1 7fbf eda8 ed3e 4b0e a9be bb29 59be
00000040: 629d 19bd a0bd 30be 5684 92bf 3b7f b5bf
00000050: 88e4 adbf efed 43bf 413a aa3f faa1 bd3f
00000060: b006 c0be 256f 503f 63d2 f63f bd7f 623f
00000070: 29c5 a1bf f1b8 fbbf 111e 943f 3942 04c0
00000080: a6f9 7dbf 0e35 6abf 12ba 8f3f 73f0 dcbf
00000090: d314 2540 ab16 5f3f 1514 8fbf d8c4 273e
000000a0: f180 0f3f c4c2 0ec0 e687 da3d 4cc4 77bf
000000b0: 7687 afbf 0026 c03e 8d02 20bf bd8e 133e
000000c0: 7964 a53f 5da0 6ebf 585a 09bf 2b45 5f3f
000000d0: fe87 e63f 5d9b 963e c94f 1a3f 5659 af3f
000000e0: 4d7a d6bf 8ec1 87bf b2db f03e 4a80 3f3f
000000f0: 6a0f aabf 1a8c 11bf 2434 80be 4606 d83f
00000100: d959 b03b dbd8 ab3e 9774 23bf a7d8 623f
00000110: 3f19 973e 8537 15c0 b558 71bf c42f 0c3f
00000120: f8b6 ca3f 7e8d 173f bf75 9fbf b4eb 693f
00000130: 1128 8f3f 7e41 163e 8d63 ccbf dbdb 0fc0
00000140: eceb 86bf e705 2d40 452e 1b3f dace d4bf
00000150: 73d2 7d3e 73b9 6e3e a06d eb3f 8ea1 3abf
00000160: 0003 c93d 6306 9d3f 835d 2d3f 15e6 5b3f
00000170: b6af 063e 0cab 0d3f 9dbb 8a3f f21d f3bf
00000180: ae82 c3bf 4f95 70bf eaf2 89bd b96f 933f
00000190: e02a e63f 9c27 0fc0 273a 953f d02b 3640
000001a0: 0bed 9dbf 4990 37bf 48f5 13c0 94ce c23f
000001b0: 0f09 23bd 11f0 993f 0b11 fd3e 79e9 c8bf
000001c0: 730c 183f 62cd 063f 83fd 5e3f e689 98bf
000001d0: 8919 fbbe d3ab 443f 0e3b 993f 3832 bd3e
000001e0: 0a93 2dc0 2109 e8be 7c4c 153f 3d1a aebe
000001f0: 947c aa3e d96d 13be e204 08bf 4222 98bf
00000200: 49f0 a2bf d3a4 98bf b478 463f bca7 fd3e
00000210: 8da8 0fbe fc1c 94bf 8876 873f 4a07 c8be
00000220: cd88 2c3f 1c93 d6be 76a8 91bb 1480 db3f
00000230: 8f83 4ebe 9766 463f 1ba6 69bf 5b92 7e3f
00000240: 5e42 0fbe 201a 8abf 8d63 253f 37b9 11bf
00000250: ba95 4bbf 4a69 973f 9ae8 f2be 378e c4be
00000260: 90cc aebf 9434 f43c a159 72bf d23d 7d3c
00000270: db7a f7be 3985 953f 9386 ecbf b29b 89bf
00000280: da3c 4f3f e874 173f 65c8 a93f 0712 623e
00000290: a5fb 543e ff19 a83f 6b82 dcbe 0609 ea3f
000002a0: 3ea8 fa3d 1667 5a3e 2809 ff3e d0ae 813d
000002b0: 11a1 20bf 3b01 2d3f 77ea 263f 7cae 323f
000002c0: 2358 0440 3452 623e 17f8 dd3e 9429 92bf
000002d0: d9ca 483f e605 2ebf ae12 52be 99a5 323f
000002e0: 9bf2 96bd 7a52 b0be 79ee bf3e d257 d23e
000002f0: 2681 ccbe 711b 26bd 0998 6fbf 0d90 55bf
00000300: 3ff6 123f dd99 93bf 6879 d6be 33ed ccbf
00000310: 8705 e0be 8a11 63bf a6cd 74be b420 f4be
00000320: d6c2 44bf 868d 8abd c1e9 7e3f 2def a3bd
00000330: 3638 af3d 8d66 3c3c c860 65bd 63f6 af3d
00000340: d351 d33e f918 693f ca86 1ebf 9d4f fd3e
00000350: 1f52 313f 0aa4 23be e24f 953f cf6b 5a3f
00000360: 0912 67bf 40b7 eb3e 2a4d 0f3f 2374 30bf
00000370: 6732 96bd 605f cd3f 6b75 843f 32d8 193e
00000380: a6a3 04bf 6b6d 3e3e 9255 0b40 4c67 09bd
00000390: ceed ab3f 1f16 aebf 0d09 8ebf 44d9 6bbf
000003a0: 5bd6 903f 2387 3bbf 84db 903f 6ab0 62be
000003b0: 3510 62bf dc6d abbf ee8b 953f 6681 76bf
000003c0: e04b 173f 3bca d53e e1b0 f0bf 654f f7be
000003d0: cdf9 da3e b76b 813d f2e9 f53e ed5f 44be
000003e0: 666e b03e db46 07bf d4ad 643f dd0c bb3e
000003f0: 78a4 7abf 9318 873f 7f6d fbbe ead1 a7bf
-0.42958027 -1.6985133 0.3637933 -0.8861969 2.1318533 1.4024546 -1.5258639 1.6530795
-0.9149315 -2.177942 -0.17333636 -0.008863008 -0.9995373 0.46417943 -0.33018717 -0.21207325
-0.037503608 -0.17259836 -1.1446636 -1.4179453 -1.3585367 -0.7653493 1.3299028 1.4815056
-0.37505102 0.81419593 1.9282955 0.88476163 -1.2638294 -1.9665815 1.1571676 -2.066542
-0.9920906 -0.91487205 1.1228659 -1.7260879 2.579396 0.87143964 -1.1178004 0.16383684
0.56056124 -2.2306376 0.10670452 -0.967839 -1.3713214 0.37528992 -0.6250389 0.14409919
1.2921287 -0.93213445 -0.5365348 0.87214917 1.8010252 0.29415408 0.6027799 1.3699138
-1.6756073 -1.0605943 0.47042614 0.7480513 -1.3285954 -0.56854403 -0.2503978 1.6876915
0.0053818044 0.33563885 -0.63849777 0.88611835 0.2951145 -2.3315136 -0.9427598 0.54760385
1.5837088 0.59200275 -1.2457808 0.9137528 1.1184102 0.14673421 -1.596788 -2.247794
-1.0540748 2.7034853 0.60617477 -1.6625626 0.24787311 0.23312931 1.839283 -0.7290276
0.09815025 1.2267574 0.6772081 0.8589795 0.13152966 0.5533912 1.0838505 -1.8993514
-1.5274255 -0.93977827 -0.06735785 1.151847 1.7981834 -2.2367926 1.1658372 2.846424
-1.2337965 -0.71704537 -2.3118458 1.5219293 -0.03980356 1.2026387 0.49427065 -1.569625
0.59393996 0.5265714 0.8710558 -1.1917083 -0.4904292 0.7682468 1.1971147 0.36952376
-2.7120996 -0.45319465 0.5831983 -0.34004393 0.3329817 -0.14397372 -0.5313245 -1.1885455
-1.2729579 -1.19253 0.7752793 0.49542034 -0.14029141 -1.1571345 1.0583048 -0.3906806
0.6739624 -0.4190911 -0.004445131 1.7148461 -0.20167373 0.7750029 -0.9126908 0.9944207
-0.13990161 -1.0789223 0.6460503 -0.5692324 -0.7952534 1.1829007 -0.47443086 -0.3838975
-1.3656178 0.029810227 -0.9466801 0.015456634 -0.4833592 1.1681281 -1.8478569 -1.075064
0.8095223 0.5916276 1.326428 0.2207719 0.2079912 1.3132933 -0.4306825 1.8284004
0.12239121 0.21328387 0.49811673 0.06332171 -0.6274577 0.6758 0.65201515 0.6979749
2.0678794 0.2210167 0.4335334 -1.1418939 0.7843452 -0.6797775 -0.20514938 0.6978393
-0.07370492 -0.34437925 0.37486628 0.41082627 -0.39942282 -0.040553514 -0.9359136 -0.8342293
0.5740699 -1.153133 -0.418895 -1.6009887 -0.43754217 -0.8869864 -0.23906574 -0.476812
-0.76859796 -0.06765275 0.9957543 -0.080046035 0.08555643 0.011499059 -0.0560005 0.085919164
0.41273364 0.9105373 -0.6192442 0.49474803 0.6926593 -0.15980545 1.1665003 0.8532075
-0.90261894 0.46038246 0.5597712 -0.6892721 -0.07333832 1.6044731 1.0348333 0.15023878
-0.5181221 0.18596427 2.1770978 -0.033545777 1.3431947 -1.3600501 -1.1096512 -0.92128396
1.1315416 -0.7325308 1.1316991 -0.22137609 -0.8830598 -1.3392901 1.1683328 -0.96291196
0.5910015 0.41755852 -1.8803979 -0.4830276 0.42768708 0.06319373 0.4803005 -0.19177218
0.34459227 -0.5284249 0.8932774 0.3653325 -0.9790721 1.0554374 -0.49106976 -1.3110936

lmhead.weight f4 [96, 32]
00000000: 73a6 c1be 6d7f 9dbe b712 2ebf 4734 c23e
00000010: 2034 e3be 4906 98be 2361 26be c687 273f
00000020: c585 2b3e fbb3 4e3e 72fd 1dbf f028 f63e
00000030: 53ad a53e a73d 1b3e 6a18 123f ad88 203e
00000040: 4983 78bd 7ab3 873e ad9d 46be 8794 11bf
00000050: 1fa6 febe 432f 133f 4d74 1a3e 9201 92ba
00000060: 194a 013f 9e4f 2bbe cad9 33be c060 943e
00000070: c3b1 51bd 0fc6 6c3e cbff dd3d aa50 babe
00000080: 6fdb 5a3e 7ab4 6abe 4f25 d63d dafd cfbd
00000090: a1ac 66be a400 d0bd a4a2 d1be 927d 1e3f
000000a0: 5be5 713e 13f7 e23e f853 773d bb0f 8fbe
000000b0: b2f3 ffbe 2d5b 9ebe 32d1 a53e 57f5 a8be
000000c0: eea4 b53d b959 933e 5e4d 003d 3b78 5a3e
000000d0: 19a2 f7be 0b90 0a3e a69e 043e e066 56be
000000e0: 169e 133f 1d11 bcbe 512f 523e 81f9 6b3e
000000f0: b8ce eabd 794f 833e d8a2 6d3d f460 b1be
00000100: 42d0 e53d b135 843d 99d9 e3bd 3d3c 833e
00000110: 904c 4cbe 2c18 63be 6ae8 1f3e 6249 623d
00000120: 50ac 1dba 90bb d43e 9db3 65be 632b 47bd
00000130: 3e14 53bc c8d7 a2bd b047 d0be 8946 52bd
00000140: 5b39 26bd a6e9 dc3e af24 12be c0a7 0b3e
00000150: 8825 97be ab1b 123e 9fec 60be 5764 853d
00000160: 2fa8 c13e 4ff7 273e f696 853d a99e 183e
00000170: 6114 93bd 8ffe 37be ddb6 22be 43cb 96be
00000180: 5c59 ba3d aaba 9f3e ba6b 003e 3595 38bd
00000190: d22b e03e 0d2c 513b 1adc 69be 53d8 153a
000001a0: ee02 153e dfe2 753e e18a d83c 67d5 583e
000001b0: 6053 acbe 6872 123f 609d 5dbf 2f4c 91be
000001c0: c4a2 3fbd edef c63e b10c b5bb bc2e babe
000001d0: 868a dbbe c7ed d9bd aa77 853e dc6c 8d3d
000001e0: fead 713e 4dda 04bd 502a 82bd c4fd c43e
000001f0: 0eae 41be 8d09 3bbc bfb4 273e fd8c d7be
00000200: e205 84be 1366 cb3e ff6f 0fbf e0cb bd3e
00000210: 6740 f8bd 81dc a1bd 9974 853e ec4a 28bf
00000220: 36d0 c6be 66df 0b3f fc32 0abe 38e5 f23e
00000230: 3ca5 8d3e 3bdd 2f3f 5bfe f5be 0158 ea3c
00000240: 9ab3 6abe bc41 f93d ab41 0d3e 74a6 503e
00000250: b115 2fbf e8ad 323e 5be7 64be 32bb 873e
00000260: 8a43 703c 7bc7 1f3c 88f4 67be 2ea6 34be
00000270: 278c 0dbd 22e1 09bf 6fcc 853e 9c2e 453e
00000280: c615 9ebe 0f5f 743e f6e6 e2be 9ebc bd3e
00000290: ce43 aabd 80bf 0dbd f489 0a3f 845c ffbe
000002a0: 0ebf c4be 67f4 e83e 2d67 6bbe 845a f23e
000002b0: 4e55 863e bf6a d43e e8d8 fabd b4f8 c63c
000002c0: 386c fcbd ee9e 86bd d862 793e 49c9 79bc
000002d0: ce34 0dbf e837 383e 8f4e 2dbe 00a1 723e
000002e0: ca54 f03d 384c 883c b7e8 63be 67a7 1fbe
000002f0: 3076 953d e51c a9be f8de a43e 3999 0c3e
00000300: f4c1 97be 9b6b 823e 122e 04bf e0f7 b83e
00000310: 297f 21be ad0b 513d 73ef cd3e fd13 06bf
00000320: 87ff b7be c144 0a3f 83b6 08be f690 fe3e
00000330: 0083 683e 13f5 c03e 97b8 a2be 656c b73d
00000340: 03c2 25be e536 84bd 1ab9 9c3e d7d8 c93d
00000350: 74c7 29bf 8469 5f3d f0de 55be f681 073e
00000360: 08f5 af3b 85d7 023e 4e20 32be cf07 ccbd
00000370: 8227 bd3c 35ac 84be a7c2 0a3f e0c1 3c3e
00000380: 45c8 a1be 4faa 903e 4e1b 47bf 7581 5d3e
00000390: a1f2 f6bd efa6 9ebe 1280 b93e 0938 47bf
000003a0: 7b19 d1be 25b1 de3d e8b8 a7be ff20 ec3e
000003b0: 29b2 763e 5758 243f ff9c b1be 6b43 9dbe
000003c0: 68d8 243d 2851 95bd 2722 823d 2961 193e
000003d0: c4c6 c5be 651b 933e b9eb f3bc b855 023f
000003e0: 4e57 463e ce2a 433e 6f9f 2bbe 4e41 18bf
000003f0: a393 b738 13ed 64be 49cf d23e f800 363e
-0.37822303 -0.3076128 -0.67997307 0.3793051 -0.44375706 -0.29692295 -0.16247992 0.6544155
0.16750248 0.20185845 -0.6171485 0.48078108 0.32358798 0.15160237 0.570685 0.15677138
-0.06067208 0.26504117 -0.19396086 -0.5686726 -0.49736115 0.5749399 0.15083428 -0.0011139384
0.5050369 -0.1672959 -0.17563549 0.28980064 -0.051194917 0.23122428 0.10839804 -0.36389667
0.2137277 -0.22920409 0.10456335 -0.1015584 -0.2252679 -0.10156372 -0.40944397 0.61910355
0.23622648 0.44329128 0.060382813 -0.2794169 -0.49990612 -0.30928937 0.32386166 -0.3299968
0.088693485 0.2877939 0.031323783 0.21334927 -0.48365858 0.1353151 0.12951145 -0.20937681
0.57663095 -0.36731806 0.20525862 0.23044397 -0.1146521 0.2564657 0.058016628 -0.34644282
0.11221363 0.06455553 -0.11125488 0.25631896 -0.19951081 -0.2217719 0.15616003 0.055245765
-0.0006014751 0.4154935 -0.22431798 -0.04862536 -0.012883244 -0.07951313 -0.40679693 -0.0513368
-0.040582042 0.4314701 -0.14271806 0.1363821 -0.29520822 0.14268367 -0.21965264 0.06513279
0.37823626 0.16402934 0.06522934 0.14904274 -0.07181621 -0.179682 -0.1589007 -0.2945195
0.09099075 0.311971 0.12541094 -0.04506417 0.43783432 0.0031917125 -0.22837868 0.0005716134
0.14551899 0.24012326 0.02643341 0.21175157 -0.3365736 0.5720582 -0.8656826 -0.28378436
-0.046786085 0.38854924 -0.0055251946 -0.3636378 -0.42879122 -0.106410556 0.2606786 0.06905529
0.23601529 -0.03243475 -0.06355727 0.38474858 -0.18914053 -0.011415851 0.16377543 -0.42099753
-0.25785738 0.39726314 -0.5603027 0.37069607 -0.12121659 -0.07903386 0.2606552 -0.6573932
-0.38830727 0.54637754 -0.13496011 0.47440505 0.27665126 0.68696946 -0.4804562 0.028606417
-0.22920075 0.12170741 0.13794582 0.20375997 -0.68392473 0.17449152 -0.2235388 0.26510006
0.01466454 0.00975215 -0.22651875 -0.17641518 -0.034557488 -0.5385915 0.26132533 0.19256061
-0.30875987 0.23864387 -0.44316834 0.37057966 -0.08313714 -0.034606457 0.5411675 -0.4987527
-0.38427013 0.45498964 -0.22988577 0.47334683 0.26236957 0.4148769 -0.12248403 0.024288513
-0.123253286 -0.06573282 0.24354112 -0.015245744 -0.551587 0.17990077 -0.16924499 0.23694229
0.11734922 0.016637906 -0.22256742 -0.15591203 0.07297933 -0.33029857 0.32201362 0.13730325
-0.29640162 0.2547272 -0.516328 0.36126614 -0.15771164 0.051036526 0.40221748 -0.5237425
-0.3593714 0.5401116 -0.13350873 0.4971997 0.22706223 0.37686977 -0.31781456 0.089562215
-0.16187291 -0.06455783 0.3060997 0.09855812 -0.66319966 0.054543987 -0.20885825 0.1323317
0.005369786 0.12777527 -0.17395136 -0.09962427 0.023090128 -0.25912634 0.54203266 0.18433332
-0.31598106 0.28254935 -0.7777604 0.21631415 -0.120579965 -0.30986735 0.36230522 -0.7781988
-0.40839753 0.108736314 -0.3275826 0.46118924 0.240914 0.64197296 -0.3469009 -0.30715498
0.040245444 -0.0729087 0.0635417 0.1497847 -0.3862821 0.28731838 -0.029775487 0.50912046
0.19369242 0.19059297 -0.16760038 -0.5947465 8.7536195e-05 -0.22356062 0.4117377 0.17773807

lmhead.bias f4 [96]
00000000: f8ac 613e fc31 1f3f 1ddf 9bbf cd80 0cbf
00000010: e400 78be 3144 1ebf 0d0a d3be 8c53 07bf
00000020: e104 35bf 76ab 77bf d156 65bf e514 46bf
00000030: 3422 1abf 33b9 21bf e8e5 b1be 9f2f 513e
00000040: 1975 ebbd c5a2 a6be 8738 a63e 5f5b 2a3e
00000050: 1475 0abe e559 d6be 0b63 0fbf 64c2 c2be
00000060: 048b d4be 053d 00bf 34c9 69be 1ae8 43be
00000070: 7f61 7cbf 9441 f6be f160 d5be 2b02 e2be
00000080: e7ad b2bf 57f8 01bf 93ea 93be c6ab cabe
00000090: d977 0abe efde 54be a418 0d3d e0e9 c3be
000000a0: 951f 92be 3047 0abf e12d 9bbe 0adb 38bf
000000b0: ddcf 0ebf 2c29 10bf 4dc3 f3be d057 3bbf
000000c0: b2d5 f7be 8f8d b0be 9b8e 34bf 8233 89be
000000d0: bf5b a8be 40fd 48be 2a79 3fbf 2bb1 ccbe
000000e0: b607 dc3c f4c5 38bf 037e 01bf b24d 30bf
000000f0: 602c e7be 7d2b f2be 6e5e 47bf 8561 13bf
00000100: 8195 99be e053 a63e 4a47 31be 6669 d9bc
00000110: 8a25 38bd 9a48 be3e ac05 473e 1da0 a63e
00000120: e2e9 a43d 4f0c 833d 168b b2bf e7e0 18bf
00000130: fe63 8e3e 1ce3 b4ba f13a 2f3f 348e c43d
00000140: b3f9 5b3d 07a9 bbbe d32e e23e 8c2c 02be
00000150: 0a20 833e 2084 3d3e f1db 0bbe 433f c5be
00000160: 1907 15bf 0065 eabe a36e debe f69c 07bf
00000170: 5cdb bcbe 379b 75bf 9635 68bf 4514 33bf
0.22038639 0.62185645 -1.2177464 -0.54884034 -0.2421909 -0.618228 -0.41218606 -0.5286186
-0.7071057 -0.96746004 -0.89585596 -0.7737563 -0.6020844 -0.63173217 -0.34745717 0.20428322
-0.11496944 -0.32546058 0.32465002 0.16636418 -0.13521224 -0.4186546 -0.560105 -0.38038933
-0.4151231 -0.5009311 -0.22830659 -0.19131508 -0.9858627 -0.48096907 -0.41675523 -0.4414228
-1.3959321 -0.5076956 -0.28889903 -0.39584178 -0.13522281 -0.20788167 0.034447327 -0.3826437
-0.2853972 -0.54014874 -0.3030844 -0.7220923 -0.55785924 -0.56312823 -0.4760994 -0.73180866
-0.48405224 -0.34483 -0.705301 -0.2679711 -0.32882497 -0.19627857 -0.74794257 -0.39978918
0.026859146 -0.7217705 -0.50582904 -0.68868554 -0.45151043 -0.47298804 -0.77878463 -0.5757068
-0.29996875 0.32485867 -0.17312351 -0.026539516 -0.044957675 0.37164766 0.19435757 0.32544032
0.08052422 0.06398832 -1.3948696 -0.59718174 0.27810663 -0.0013800594 0.6844931 0.095974356
0.05370493 -0.36652395 0.4417635 -0.12712306 0.2561038 0.18507433 -0.1365812 -0.38524827
-0.58213955 -0.45780182 -0.43443784 -0.5297388 -0.36886108 -0.95939964 -0.90706766 -0.69952804

position_embedding_table.weight f4 [64, 32]
00000000: ab44 f03f fa6f 6340 40ea 65c0 5d09 a3be
00000010: 04a3 8b3f 338c 01c0 92cc 2cc0 f365 0840
00000020: e12b a8bf fdd4 7ac0 49f9 1f40 63c8 9abf
00000030: ae19 00c0 8a5a 1bc0 2ae5 8c3f 5183 fe3f
00000040: 5535 0dc0 2e5e 24bf 3666 783f 6caf 68bf
00000050: c31c b23e 8701 f23f 78df e2bf bc2e 053f
00000060: 024c d0be 7ce1 0a40 a606 34be e8b4 fb3f
00000070: 9d85 2cc0 f4e7 e83f e9c3 1cbb 7079 62bf
00000080: ff33 c53f 0ddf f53f 23a2 bbbf 97f4 04bf
00000090: 427d 133f 05d6 8cbe 6654 1ebf dcc9 063f
000000a0: 6bdb 7b3e 7019 9cbf a26a 8b3f 19eb 513d
000000b0: 58d4 8abf ead2 eebe b787 1d3f 8844 603f
000000c0: 5274 77bf 6a24 19bf fa8e 043f 0142 3bbf
000000d0: 36c3 b83e 04fe 1c40 49fb 8dbf b46a 713d
000000e0: 3d35 02bf 4a00 7e3f 6897 c3ba 7f47 e43e
000000f0: a05a 9cbf 0c95 763f 8c19 07bd 2b5a a9be
00000100: 560e a63f 56e1 a33f 65fb c3bf 5784 40bf
00000110: a691 123e fa62 d6be 8720 46bf 9cb9 713e
00000120: cdaa 243c 4078 62bf 083b 553f 9881 08bf
00000130: 13ba 7fbf 103b c2be 30e2 d83e 12e3 fd3e
00000140: f86d 1cbf 2f56 4bbf 7475 913e d100 78bf
00000150: 0a3b 453e fb38 1140 974c 70bf fd6a 34be
00000160: 8e39 40bf 06cf fc3e a3a9 84bd a126 c13e
00000170: 3e57 8fbf dfaf c73e 6e5d 85be f9e7 f9be
00000180: 9b4c a23f 1248 9c3f dc75 acbf 2b9f 44bf
00000190: ec46 883e 96ab a7be 7557 37bf a129 853e
000001a0: af34 883e ab32 5bbf b66a 473f 6db2 81be
000001b0: 88b3 87bf 23cb fcbe db5a cd3e e88a b83e
000001c0: 723a 2cbf 5af5 4abf 480a 813e 75bb 71bf
000001d0: c46c 1f3e 3227 0c40 c333 72bf d9a4 7dbe
000001e0: 40f3 41bf cf5c 1d3f 996d 0ebd 0200 4d3e
000001f0: 06fe 86bf 2f59 023f 3595 8fbe c339 01bf
00000200: 4ea4 a53f b80c 8b3f 73f0 a6bf 68e2 31bf
00000210: f051 3c3e e7a4 a3be c52a 3cbf 10b4 a73e
00000220: 4948 4d3e dfcd 2abf b8f1 533f e532 f8be
00000230: b208 66bf e65c c7be 9bee d13e a29d b83e
00000240: 40ff bcbe 5bf5 3bbf cc98 6c3e a225 69bf
00000250: 505d a23e 8055 0940 d667 32bf b357 67be
00000260: 04cb 35bf b983 0e3f 6c03 9a3d 88c2 bb3e
00000270: 9d34 64bf bcac e93e 9ca7 86be ccbb f0be
00000280: 50c4 983f 2b8e 863f c371 99bf 0e4f 5abf
00000290: 5b13 3a3e 6f65 c4be e00d 3ebf 1b64 cd3e
000002a0: 1fe6 9a3e 6c6e 5bbf 4fb4 333f 5771 e7be
000002b0: a937 6bbf 44cf febe f9f6 bd3e abe1 aa3e
000002c0: 5ae4 fdbe 284f 3bbf 4143 533e b049 71bf
000002d0: a3b8 803e 0ea4 0040 5b32 5cbf 8670 8ebe
000002e0: d8b8 39bf d558 043f 4b61 19bd 5d43 013e
000002f0: a8ff 68bf 7385 163f e58f b1be 9d6a 14bf
00000300: a7c6 9c3f 86bd 783f 0319 92bf 6d26 2bbf
00000310: d83c 783e e729 88be 635d 35bf 704a 873e
00000320: 39f5 ac3e 3e03 0dbf cdc7 483f 3a9e d2be
00000330: d74c 77bf 4e0e dbbe 418c b03e 7cfc 3b3e
00000340: d4ef 9abe 715e 34bf c739 4c3e b0be 55bf
00000350: 7ea9 c03e c726 f83f 698d 20bf a266 98be
00000360: 59ce 2fbf f737 143f cf33 393e 62a4 a53e
00000370: 7db7 42bf 76f7 d33e af00 8fbe de14 efbe
00000380: ae40 7f3f 66a0 3a3f a3e0 9fbf 8662 71bf
00000390: 19f8 3cbc 70d2 04bf d966 62bf d421 a23e
000003a0: 7931 de3d 03f0 5dbf cf8d 0e3f 742e 47bf
000003b0: 2bc9 72bf 3c0f 18bf 904a 573e bd98 383e
000003c0: ad47 d0be ceac 4dbf ae7f 2a3d e96e 81bf
000003d0: 6c23 863e b3d9 d83f aad8 4bbf fe5f cebe
000003e0: d322 4abf bf13 913e 5129 07be c4a2 cb3d
000003f0: c954 65bf 46ec cd3e 234b 01bf 7a0f 31bf
1.8770956 3.5537095 -3.5924225 -0.3184308 1.0909123 -2.024182 -2.699986 2.1312225
-1.3138391 -3.9192498 2.4995902 -1.2092403 -2.0015674 -2.427401 1.1007435 1.9883825
-2.2063801 -0.64206207 0.9703096 -0.9089267 0.34787568 1.8906716 -1.7724447 0.52024436
-0.4068299 2.1700125 -0.17580661 1.9664583 -2.695655 1.8195786 -0.0023920482 -0.8846655
1.5406493 1.9208695 -1.4658855 -0.51935714 0.57613003 -0.27507034 -0.6184753 0.5265176
0.2459542 -1.2195263 1.0891917 0.051249597 -1.0846052 -0.4664529 0.6153521 0.8760457
-0.96661866 -0.5982119 0.51780665 -0.7314759 0.36086434 2.453004 -1.1092311 0.05893965
-0.50862485 0.9921919 -0.0014922442 0.44585797 -1.2215157 0.9632118 -0.032983348 -0.33076605
1.2973125 1.2803142 -1.5311095 -0.75201935 0.14313373 -0.41872388 -0.7739338 0.2360596
0.010050488 -0.88464737 0.832932 -0.53322744 -0.998933 -0.37935686 0.42360067 0.49587303
-0.611053 -0.7942838 0.28409922 -0.96876246 0.19260803 2.2691028 -0.93866867 -0.17618938
-0.7508782 0.49376696 -0.06477668 0.37724784 -1.1198499 0.39001366 -0.26047844 -0.48809794
1.2679628 1.2209494 -1.3473468 -0.7680537 0.2661661 -0.32748097 -0.71617824 0.26008323
0.26602694 -0.8562419 0.778972 -0.2533144 -1.0601664 -0.4937373 0.4010838 0.36043477
-0.6727668 -0.79280627 0.25203156 -0.9442666 0.15568835 2.1898923 -0.9461023 -0.24769916
-0.75761795 0.6146974 -0.03477249 0.20019534 -1.0546272 0.50917333 -0.28043523 -0.5047876
1.2940767 1.0863256 -1.3042129 -0.69486094 0.18390632 -0.31961748 -0.7350276 0.32754564
0.20047106 -0.66720384 0.8279071 -0.4847633 -0.8985702 -0.38938063 0.41002354 0.36057764
-0.3691349 -0.7342126 0.23105162 -0.9107305 0.31711817 2.1458435 -0.6968969 -0.22592048
-0.710129 0.5566974 0.07520184 0.36671853 -0.8914278 0.45639598 -0.2629975 -0.47018278
1.193491 1.0512136 -1.1987842 -0.8527688 0.18171446 -0.38358638 -0.7423992 0.40115437
0.30253693 -0.85715365 0.70197004 -0.4520366 -0.91881806 -0.49767506 0.37102488 0.33375296
-0.4958828 -0.7316766 0.20631124 -0.94253063 0.25140867 2.010013 -0.86014336 -0.27820224
-0.72547674 0.51698047 -0.0374463 0.12623353 -0.910151 0.5879738 -0.34680095 -0.5797518
1.2248124 0.9716419 -1.1413883 -0.6685551 0.2424196 -0.2659447 -0.7084562 0.2642398
0.3378084 -0.5508307 0.7842987 -0.41136342 -0.96601623 -0.4278435 0.34482005 0.18358034
-0.302611 -0.70456606 0.19943915 -0.8349409 0.37629312 1.9386834 -0.62715775 -0.29765803
-0.68674237 0.57897896 0.1808617 0.32351977 -0.7606123 0.41399735 -0.2793021 -0.46695608
0.9970807 0.72901 -1.2490429 -0.9429096 -0.0115337605 -0.518836 -0.88438183 0.31666434
0.1084928 -0.86694354 0.5568513 -0.77805257 -0.9483821 -0.59398246 0.21024537 0.18027015
-0.40679684 -0.80341804 0.04162567 -1.0111972 0.261989 1.6941437 -0.7962748 -0.4030761
-0.7895939 0.28335378 -0.13199355 0.099431545 -0.89582497 0.40219325 -0.50505275 -0.6916424

block.0.sa.heads.0.tril f4 [64, 64]
00000000: 0000 803f 0000 0000 0000 0000 0000 0000
00000010: 0000 0000 0000 0000 0000 0000 0000 0000
00000020: 0000 0000 0000 0000 0000 0000 0000 0000
00000030: 0000 0000 0000 0000 0000 0000 0000 0000
00000040: 0000 0000 0000 0000 0000 0000 0000 0000
00000050: 0000 0000 0000 0000 0000 0000 0000 0000
00000060: 0000 0000 0000 0000 0000 0000 0000 0000
00000070: 0000 0000 0000 0000 0000 0000 0000 0000
00000080: 0000 0000 0000 0000 0000 0000 0000 0000
00000090: 0000 0000 0000 0000 0000 0000 0000 0000
000000a0: 0000 0000 0000 0000 0000 0000 0000 0000
000000b0: 0000 0000 0000 0000 0000 0000 0000 0000
000000c0: 0000 0000 0000 0000 0000 0000 0000 0000
000000d0: 0000 0000 0000 0000 0000 0000 0000 0000
000000e0: 0000 0000 0000 0000 0000 0000 0000 0000
000000f0: 0000 0000 0000 0000 0000 0000 0000 0000
00000100: 0000 803f 0000 803f 0000 0000 0000 0000
00000110: 0000 0000 0000 0000 0000 0000 0000 0000
00000120: 0000 0000 0000 0000 0000 0000 0000 0000
00000130: 0000 0000 0000 0000 0000 0000 0000 0000
00000140: 0000 0000 0000 0000 0000 0000 0000 0000
00000150: 0000 0000 0000 0000 0000 0000 0000 0000
00000160: 0000 0000 0000 0000 0000 0000 0000 0000
00000170: 0000 0000 0000 0000 0000 0000 0000 0000
00000180: 0000 0000 0000 0000 0000 0000 0000 0000
00000190: 0000 0000 0000 0000 0000 0000 0000 0000
000001a0: 0000 0000 0000 0000 0000 0000 0000 0000
000001b0: 0000 0000 0000 0000 0000 0000 0000 0000
000001c0: 0000 0000 0000 0000 0000 0000 0000 0000
000001d0: 0000 0000 0000 0000 0000 0000 0000 0000
000001e0: 0000 0000 0000 0000 0000 0000 0000 0000
000001f0: 0000 0000 0000 0000 0000 0000 0000 0000
00000200: 0000 803f 0000 803f 0000 803f 0000 0000
00000210: 0000 0000 0000 0000 0000 0000 0000 0000
00000220: 0000 0000 0000 0000 0000 0000 0000 0000
00000230: 0000 0000 0000 0000 0000 0000 0000 0000
00000240: 0000 0000 0000 0000 0000 0000 0000 0000
00000250: 0000 0000 0000 0000 0000 0000 0000 0000
00000260: 0000 0000 0000 0000 0000 0000 0000 0000
00000270: 0000 0000 0000 0000 0000 0000 0000 0000
00000280: 0000 0000 0000 0000 0000 0000 0000 0000
00000290: 0000 0000 0000 0000 0000 0000 0000 0000
000002a0: 0000 0000 0000 0000 0000 0000 0000 0000
000002b0: 0000 0000 0000 0000 0000 0000 0000 0000
000002c0: 0000 0000 0000 0000 0000 0000 0000 0000
000002d0: 0000 0000 0000 0000 0000 0000 0000 0000
000002e0: 0000 0000 0000 0000 0000 0000 0000 0000
000002f0: 0000 0000 0000 0000 0000 0000 0000 0000
00000300: 0000 803f 0000 803f 0000 803f 0000 803f
00000310: 0000 0000 0000 0000 0000 0000 0000 0000
00000320: 0000 0000 0000 0000 0000 0000 0000 0000
00000330: 0000 0000 0000 0000 0000 0000 0000 0000
00000340: 0000 0000 0000 0000 0000 0000 0000 0000
00000350: 0000 0000 0000 0000 0000 0000 0000 0000
00000360: 0000 0000 0000 0000 0000 0000 0000 0000
00000370: 0000 0000 0000 0000 0000 0000 0000 0000
00000380: 0000 0000 0000 0000 0000 0000 0000 0000
00000390: 0000 0000 0000 0000 0000 0000 0000 0000
000003a0: 0000 0000 0000 0000 0000 0000 0000 0000
000003b0: 0000 0000 0000 0000 0000 0000 0000 0000
000003c0: 0000 0000 0000 0000 0000 0000 0000 0000
000003d0: 0000 0000 0000 0000 0000 0000 0000 0000
000003e0: 0000 0000 0000 0000 0000 0000 0000 0000
000003f0: 0000 0000 0000 0000 0000 0000 0000 0000
1.0 0.0 0.0 0.0 0.0 0.0 0.0 0.0
0.0 0.0 0.0 0.0 0.0 0.0 0.0 0.0
0.0 0.0 0.0 0.0 0.0 0.0 0.0 0.0
0.0 0.0 0.0 0.0 0.0 0.0 0.0 0.0
0.0 0.0 0.0 0.0 0.0 0.0 0.0 0.0
0.0 0.0 0.0 0.0 0.0 0.0 0.0 0.0
0.0 0.0 0.0 0.0 0.0 0.0 0.0 0.0
0.0 0.0 0.0 0.0 0.0 0.0 0.0 0.0
1.0 1.0 0.0 0.0 0.0 0.0 0.0 0.0
0.0 0.0 0.0 0.0 0.0 0.0 0.0 0.0
0.0 0.0 0.0 0.0 0.0 0.0 0.0 0.0
0.0 0.0 0.0 0.0 0.0 0.0 0.0 0.0
0.0 0.0 0.0 0.0 0.0 0.0 0.0 0.0
0.0 0.0 0.0 0.0 0.0 0.0 0.0 0.0
0.0 0.0 0.0 0.0 0.0 0.0 0.0 0.0
0.0 0.0 0.0 0.0 0.0 0.0 0.0 0.0
1.0 1.0 1.0 0.0 0.0 0.0 0.0 0.0
0.0 0.0 0.0 0.0 0.0 0.0 0.0 0.0
0.0 0.0 0.0 0.0 0.0 0.0 0.0 0.0
0.0 0.0 0.0 0.0 0.0 0.0 0.0 0.0
0.0 0.0 0.0 0.0 0.0 0.0 0.0 0.0
0.0 0.0 0.0 0.0 0.0 0.0 0.0 0.0
0.0 0.0 0.0 0.0 0.0 0.0 0.0 0.0
0.0 0.0 0.0 0.0 0.0 0.0 0.0 0.0
1.0 1.0 1.0 1.0 0.0 0.0 0.0 0.0
0.0 0.0 0.0 0.0 0.0 0.0 0.0 0.0
0.0 0.0 0.0 0.0 0.0 0.0 0.0 0.0
0.0 0.0 0.0 0.0 0.0 0.0 0.0 0.0
0.0 0.0 0.0 0.0 0.0 0.0 0.0 0.0
0.0 0.0 0.0 0.0 0.0 0.0 0.0 0.0
0.0 0.0 0.0 0.0 0.0 0.0 0.0 0.0
0.0 0.0 0.0 0.0 0.0 0.0 0.0 0.0

block.0.sa.heads.0.key.weight f4 [5, 32]
00000000: afa0 b13c 3561 3f3e 0a08 7dbc 3cc8 c7bd
00000010: 9d87 1d3d ff08 4dbd 5345 debd f99c f53d
00000020: 1e75 113d e90e db3c 04bf 82be 91e0 743d
00000030: 3474 24be 7369 4c3d 8a57 9c3e b441 5ebc
00000040: 9807 9c3e ec28 e83d 58a0 4e3d 5485 783e
00000050: 455a e03d 8e0b 053e 580c 893d 1f14 0fbe
00000060: 0b4d 05be c3cb c2bd b1c9 0a3e b251 0e3d
00000070: 1a87 4a3d ff5f 073d f3d6 3bbe 742e a8bd
00000080: 7d9a 25be b40a 5cbe 410f 9b3d 6790 d73d
00000090: 0854 eabd 898b bd3d 5b30 2a3e e4be 5dbd
000000a0: 70b3 3abc e738 17be 5444 70be 1d4f 143e
000000b0: 462c 673d c32c a4bd c414 a23c 5797 02bd
000000c0: 9d11 c03d 3e91 433e 28f9 843d 2cf3 423e
000000d0: 33f5 273e c0c7 a9be ab04 b53d 946a 8d3d
000000e0: 8664 db3c 9da4 4bbe c4ad a7bd 35d2 cd3c
000000f0: 1303 023e d295 a73c 8154 c93d 25e7 22be
00000100: 0d7e f03d 2314 793e ca7d 42be 2f88 ca3d
00000110: 943d 423e f605 463d 7f32 1b3e 5c08 5d3d
00000120: 72a4 c8bd ad5a 133e 7c65 49bd 872f 6dbd
00000130: bf5b c93c c23e b53d b5a7 623e 1a4e 02bd
00000140: 7870 10bd 95d8 07be d0ff 9cbe 229c 063e
00000150: 7acd 6cbd fd2d 413d e166 f1bd 09b0 aa3d
00000160: dfaa 763d 4458 f9bd 191c f5bd 7529 03be
00000170: a6cc b0bd 8248 0cbd 0308 2a3e 4e5f 803d
00000180: 7bfe 80be 781e 01be f80f c83e 0293 54bd
00000190: 5295 963c ddc7 95bc ca50 a73a e619 25bd
000001a0: b1b8 ccbc c4c1 173d 4e5e 71be d5c3 b3bd
000001b0: 2726 463b f24c 163c 7d34 e3bd c791 c6bd
000001c0: 1c31 533c aeda 023e faf1 12be 0e8a 5f3e
000001d0: 2740 043d df37 0ebf 77c0 9b3d 3106 06bd
000001e0: f33c 253e 9940 0abe f216 1cbc c441 a4bd
000001f0: b76b 7e3e 6204 55bd 7412 ab3d b3db a03d
00000200: 119f 1dbe 7ecc b6bd bbc7 0abe 19ca 323d
00000210: 1a42 abbd 9081 983d 0e68 2c3e 35a0 6c3d
00000220: ec61 36bd d25d 893c d2fc 3abd a8ac 2c3e
00000230: b9a2 c0bb 1f2e 913d 22cb d8bd 1cba f93a
00000240: 05a4 34bd dd5a 813e 0d46 dc3d bdaf 153d
00000250: 822d 33be 25cc adbe ffef fe3d cf4b 6f3d
00000260: 731d 52bd f15d 0d3d 1a17 dabc 91e9 ba3d
00000270: 5385 eb3d 07da 9d3c 948c bdbd a9fb e33d
0.021683065 0.18689425 -0.015443811 -0.097549886 0.03845941 -0.050057407 -0.10853066 0.11992831
0.035512082 0.026740508 -0.25536358 0.059784476 -0.16059953 0.04990525 0.30535537 -0.0135654695
0.30474544 0.1133593 0.050445884 0.2426961 0.109547175 0.12992689 0.066918075 -0.1397252
-0.13017671 -0.09511521 0.13553502 0.03474588 0.04944525 0.033050533 -0.18343715 -0.08211985
-0.16172214 -0.21488458 0.07571269 0.105255894 -0.11441809 0.0925513 0.16620009 -0.054137126
-0.01139532 -0.147678 -0.23463565 0.14483304 0.056438707 -0.0801635 0.019785292 -0.03188261
0.093783595 0.19098374 0.06492835 0.19038075 0.1640213 -0.3316021 0.08838781 0.06905094
0.026781332 -0.19887014 -0.0818744 0.025124649 0.12696485 0.020457182 0.09830571 -0.15908487
0.11742792 0.24324088 -0.18993297 0.09889256 0.18968803 0.04834553 0.15155981 0.05396305
-0.097969905 0.14390059 -0.04916905 -0.057906654 0.02457988 0.08849861 0.22134288 -0.031812765
-0.03526351 -0.13266213 -0.3066392 0.13145497 -0.057813145 0.047163 -0.11787201 0.08334357
0.06022155 -0.121750385 -0.1196825 -0.12808783 -0.086327836 -0.034248836 0.16604619 0.06268178
-0.25194153 -0.12609279 0.39074683 -0.05189801 0.018381748 -0.018283779 0.0012765166 -0.0403079
-0.024990411 0.037050024 -0.2357113 -0.08777586 0.0030235143 0.009173619 -0.11093996 -0.096957736
0.012890127 0.12778732 -0.14350119 0.21830007 0.032287743 -0.55554 0.07605069 -0.03272075
0.16136532 -0.13501205 -0.009526955 -0.08020356 0.24845777 -0.052006133 0.08353129 0.07854404
-0.1539271 -0.089257225 -0.13552754 0.043649767 -0.08362217 0.07446587 0.16836569 0.057769973
-0.04452698 0.01676837 -0.045651264 0.16862738 -0.005878773 0.07088875 -0.105856195 0.0019052657
-0.044101734 0.25264636 0.107555486 0.03654455 -0.17497829 -0.33944812 0.12448119 0.058421906
-0.051297616 0.034513418 -0.026622344 0.091265805 0.11500039 0.019269003 -0.09255329 0.11131985

block.0.sa.heads.0.query.weight f4 [5, 32]
00000000: 5f45 f93d 951e 64bd ba8d 9b3d e99f 263e
00000010: 4166 2abe 21b1 25be 1d48 133e e25e 97bd
00000020: 957c 6c3e 2509 b33d 19fb 963e d4ac 063b
00000030: 3836 373d 9d5e e03d 299b ec3c d53e 4b3e
00000040: 2c41 11bd b2b8 823d 69a1 87be 6bdf 7d3d
00000050: ea51 64be 1642 823d 257c 0dbc 51f0 02be
00000060: cafb 823d c071 69bd d05a dbbd 846e 73be
00000070: a182 63bd 38fd 85bd 46cb 2ebc 04f0 213e
00000080: 72af 803e a173 0bbd 4ca6 d33d 334c 8ebe
00000090: 338e cc3d 53e8 02be 5363 083d 7bc6 253e
000000a0: ef25 39be 9725 0c3e a426 ff3e a479 1f3e
000000b0: 3c0b 3abd 4c0b fabd e416 51bd b7bb f1ba
000000c0: c1d7 923e 4c96 a33d dbc2 e13c afb9 1ebe
000000d0: 18c8 073d 68e8 a1be 2c01 7b3b 02f8 f2bd
000000e0: 0fd1 933d 29ac a73e 5943 7bbe 949a 343e
000000f0: 5d60 edbd 1921 0b3d 902f 5fbe e84d 853d
00000100: 2c40 6dbe f4e3 6ebe f9db c93d dd35 37be
00000110: 6727 2abe 0e95 55bd 27ae 23be 26c7 abbd
00000120: 8a30 87bd fd11 b53d 6a74 603c 90d9 163e
00000130: c146 f43d 054c 043e 2267 1fbe 4c8a 81bd
00000140: eca4 283d b698 5b3e 67c6 883e fca9 5b3d
00000150: 077b 00bd 396a a33e f372 00be 2a0b 2b3d
00000160: b0d4 01bd 794d 643e 9ab7 c03d b05f 9bbd
00000170: f6f0 0f3d 212d 9dbd e3be ac3c f0bf 2dbe
00000180: 6f7c dd3e 7130 0abd 2013 a33e 6df8 82be
00000190: 0649 9dbd 310b 463d e6c6 963e 01ae 553e
000001a0: 41ef f83d 9acb 833d 597a 8f3e 97d3 44be
000001b0: cf24 dd3d 2d08 29bf 563f 613e 3449 58be
000001c0: d270 053f 5a00 9dbd aa5b 033e 62dd 42bd
000001d0: 1d67 8f3e 5ca7 f2bd 5adb a7bd ff42 e0be
000001e0: 4599 183c e3f4 b33d 9a56 d93e 2b67 8dbe
000001f0: 0837 03bd 81b1 4c3c 0b4f 9fbe be33 dcbe
00000200: c230 853e dfc0 30bb cc4e 5abd c519 9ebd
00000210: 4110 60bd ad43 ecbe 7166 083e 43dd f0bd
00000220: 5929 83bc 0776 2fbe d284 f43d ceb3 47bd
00000230: 2861 bebd 3439 24bd ab3b 19bd ca8d c83c
00000240: f629 2e3d 1432 673d 6a64 da3d 8127 8c3d
00000250: 6af6 0b3e 3121 5cbe b447 e53d 6fae 99bd
00000260: 3e35 e3bc 4283 653e c460 5d3e 8938 803c
00000270: 79f3 633e ce78 813b c4c0 b93d f63f 2ebe
0.121714346 -0.055693228 0.075953916 0.16271938 -0.1664057 -0.1618085 0.14382978 -0.07391144
0.230944 0.087419786 0.29488447 0.002054979 0.04472944 0.10955546 0.02888258 0.19848187
-0.035462543 0.06382884 -0.26490334 0.061980646 -0.22296873 0.06360261 -0.008635555 -0.12786986
0.06395681 -0.056993246 -0.107106805 -0.23772627 -0.0555445 -0.06542438 -0.010668581 0.15814215
0.25133854 -0.03404582 0.10334453 -0.2779251 0.0998806 -0.12783937 0.033297848 0.16188996
-0.18080877 0.13686214 0.49834168 0.15573746 -0.04542087 -0.12209186 -0.05104722 -0.0018442784
0.28680232 0.07987651 0.027558735 -0.1550052 0.03314981 -0.31622624 0.003830026 -0.1186371
0.07217609 0.32748535 -0.2453741 0.17637092 -0.115906455 0.03396711 -0.21795487 0.06509
-0.23169011 -0.23329145 0.098564096 -0.17891641 -0.16616593 -0.052144103 -0.15984403 -0.08387594
-0.06601055 0.088413216 0.01369963 0.14731431 0.11927558 0.12919624 -0.15566686 -0.06325206
0.041172907 0.21444973 0.2671387 0.053628907 -0.031367328 0.3191698 -0.1254385 0.041758694
-0.031696975 0.22295178 0.09410019 -0.0758661 0.035141908 -0.07674623 0.021087116 -0.1696775
0.43258998 -0.033737604 0.3185053 -0.2558016 -0.07679944 0.048350517 0.29448622 0.20867158
0.12155009 0.06435318 0.2802303 -0.1922134 0.10798036 -0.660281 0.21996817 -0.21121675
0.52125275 -0.07666083 0.12827936 -0.04757441 0.28008357 -0.118483275 -0.08196135 -0.43801114
0.009313886 0.08786943 0.42448884 -0.27617773 -0.032034904 0.012493492 -0.31114992 -0.43008226
0.26013762 -0.002697043 -0.053297803 -0.07719759 -0.054703 -0.46145383 0.13320328 -0.11760952
-0.016010927 -0.17134868 0.11939396 -0.04875546 -0.09295875 -0.040093616 -0.03741042 0.024481673
0.042520486 0.056444243 0.10663684 0.06843472 0.13668218 -0.21497037 0.11195317 -0.07503974
-0.027735349 0.22413352 0.21618944 0.015651958 0.22260846 0.0039511686 0.0906997 -0.17016587

block.0.sa.heads.0.value.weight f4 [5, 32]
00000000: 62e9 753c 1712 563e 39d3 633d 5c49 7cbd
00000010: d6ff 9dbd 311c 32bc adf5 97bb ba6c f1bc
00000020: 1b52 16bc 22ee c6bc 8f5b 0e3d 6d90 c33b
00000030: 14df 3fbd 9a5d 80bd 2ff7 803c 964a 11bd
00000040: 2253 013e a2ba 88bc 231a 2bbe 8ac1 a03d
00000050: f713 e8bd 2f36 11bd 71a0 45bc 3cd8 873d
00000060: 1d2b babd c54d 383d fb9d c43d 5680 c63c
00000070: 9efe b43d d8d6 d93c 08c7 b23d 2d47 ad3d
00000080: adf8 53bd 0b9d c23c ad71 b9bd bf66 bfbd
00000090: fd6b 443d 19af 003d f18d 44be b3de 98bd
000000a0: 0a0a cabc f203 8dbd 1eb9 bfbd 78b6 913d
000000b0: b5f5 813d 765f ca3d 7519 c73a d0d4 f7bc
000000c0: 3686 a3bc 448b cc3c ec77 21be ac57 ffbd
000000d0: 5685 d1bb 4e54 6bbd 431b 8cbd 4dcd c5bc
000000e0: c32a 59bd f2f4 84bd 7d8b abbd 21aa 223e
000000f0: 89bb 8f3d 6048 fc3c 1be6 cbbd 01df fbbb
00000100: 2c6c c83d 530e 983d b8be 053e 63e3 14bc
00000110: 907b 10be cc32 4ebd c888 ad3d da31 423d
00000120: c8c2 14be 665b 94bd de66 a33c 1715 8e3d
00000130: fb05 45be a347 863c 5ff4 e5bd e9c7 05bd
00000140: 9449 1d3e 4ad9 d3bd a51e 793d 2f73 143d
00000150: 0dbe c7bd 53ef f53a 436c 13bd 7e0f b83c
00000160: 09f3 c23d 4762 1bbe 4b97 923c 6152 583d
00000170: 55fd 4c3a 6631 71bc 90ff 0ebe 81cb 1bbe
00000180: eefa 083e 11bf d3bd e514 fdbd bbe4 703c
00000190: f107 af3d f0e9 9dbc 6ea1 a5bd e383 333d
000001a0: d23b d03d 8467 85bd cd11 893d b279 bf3c
000001b0: 4989 be3d d496 683d c723 55bd 6947 64bd
000001c0: 94dc 1b3d ca91 a539 6309 633e a092 943d
000001d0: 6e79 00be 69dd 8cbd 8174 7c3b 9463 a93b
000001e0: f5fc f23c e09a 3abd ef44 99bd 2718 0dbe
000001f0: 26bf 9bbd c3c3 0cbe 90c3 84bd 6ea2 e53d
00000200: d2e3 913d 3efd 8d3d 19ec 3abc 855b 883d
00000210: 76e3 c63b 7510 71bd c619 c83d 5f72 9e3c
00000220: ce6b a23d de13 7b3c 7d67 853d b1ae b7ba
00000230: 53b6 58bb 0fcc b7bd d876 febb b675 b23d
00000240: 6aa0 f3bc 110a b4bd 61be 1fbe 590f 4dbc
00000250: 502e a93d ec2e b4bd e94e 153d fc7b bbbd
00000260: a0ad 5ebd 0baf 37bd 9e88 a3bb 68a0 49bd
00000270: e80f 9d3d 142c 85bd 1fc2 e03d e302 bd3c
0.015009256 0.20905338 0.05562136 -0.0615934 -0.077148125 -0.010870979 -0.004637441 -0.02947079
-0.009174849 -0.024283472 0.034755286 0.0059681446 -0.046843603 -0.06267853 0.015742866 -0.03547152
0.12629369 -0.016690556 -0.16709189 0.07849415 -0.11331933 -0.035452064 -0.012062178 0.0663304
-0.090902545 0.04499604 0.09600445 0.024231117 0.08837627 0.026591703 0.087293684 0.08460841
-0.051750828 0.023756525 -0.09054885 -0.09345769 0.04795455 0.031416986 -0.19194771 -0.074643515
-0.02466299 -0.06885518 -0.0936148 0.07114881 0.06345693 0.09881489 0.0015190082 -0.030252844
-0.019961458 0.02496875 -0.15768403 -0.12467894 -0.0063940687 -0.057453446 -0.06841137 -0.024145747
-0.053019296 -0.06492032 -0.08376215 0.15885212 0.07018191 0.03079623 -0.099559985 -0.0076864962
0.09786257 0.07424607 0.13061035 -0.009087416 -0.14109635 -0.050341412 0.084733546 0.047410823
-0.14527428 -0.07243995 0.019946512 0.06937616 -0.19240563 0.01639158 -0.11228251 -0.032661352
0.15360099 -0.10344179 0.06082024 0.03624266 -0.09753046 0.0018763341 -0.03599192 0.022468325
0.095190115 -0.15174209 0.017894408 0.052812938 0.0007819732 -0.01472125 -0.13964677 -0.1521435
0.13376972 -0.103391774 -0.12357501 0.014702971 0.085464366 -0.01927659 -0.08087431 0.04382695
0.1016766 -0.06513885 0.06692848 0.023373459 0.09303529 0.056784466 -0.052036073 -0.055732165
0.038052157 0.00031579874 0.2217155 0.07254529 -0.12546322 -0.06878168 0.003852159 0.0051693413
0.029661635 -0.045557857 -0.07483851 -0.13778745 -0.07604818 -0.13746552 -0.06482613 0.11212622
0.071235314 0.06933068 -0.011408829 0.06658081 0.006069596 -0.058853585 0.09770541 0.019341646
0.07930718 0.015324561 0.065138794 -0.0014013854 -0.0033067658 -0.08974468 -0.007765632 0.08713858
-0.029739577 -0.087909825 -0.15599968 -0.012515866 0.082607865 -0.08798012 0.036452208 -0.091545075
-0.0543648 -0.04484467 -0.0049906513 -0.04922524 0.076690495 -0.06502548 0.10974526 0.023072666

block.0.sa.heads.1.tril f4 [64, 64]
00000000: 0000 803f 0000 0000 0000 0000 0000 0000
00000010: 0000 0000 0000 0000 0000 0000 0000 0000
00000020: 0000 0000 0000 0000 0000 0000 0000 0000
00000030: 0000 0000 0000 0000 0000 0000 0000 0000
00000040: 0000 0000 0000 0000 0000 0000 0000 0000
00000050: 0000 0000 0000 0000 0000 0000 0000 0000
00000060: 0000 0000 0000 0000 0000 0000 0000 0000
00000070: 0000 0000 0000 0000 0000 0000 0000 0000
00000080: 0000 0000 0000 0000 0000 0000 0000 0000
00000090: 0000 0000 0000 0000 0000 0000 0000 0000
000000a0: 0000 0000 0000 0000 0000 0000 0000 0000
000000b0: 0000 0000 0000 0000 0000 0000 0000 0000
000000c0: 0000 0000 0000 0000 0000 0000 0000 0000
000000d0: 0000 0000 0000 0000 0000 0000 0000 0000
000000e0: 0000 0000 0000 0000 0000 0000 0000 0000
000000f0: 0000 0000 0000 0000 0000 0000 0000 0000
00000100: 0000 803f 0000 803f 0000 0000 0000 0000
00000110: 0000 0000 0000 0000 0000 0000 0000 0000
00000120: 0000 0000 0000 0000 0000 0000 0000 0000
00000130: 0000 0000 0000 0000 0000 0000 0000 0000
00000140: 0000 0000 0000 0000 0000 0000 0000 0000
00000150: 0000 0000 0000 0000 0000 0000 0000 0000
00000160: 0000 0000 0000 0000 0000 0000 0000 0000
00000170: 0000 0000 0000 0000 0000 0000 0000 0000
00000180: 0000 0000 0000 0000 0000 0000 0000 0000
00000190: 0000 0000 0000 0000 0000 0000 0000 0000
000001a0: 0000 0000 0000 0000 0000 0000 0000 0000
000001b0: 0000 0000 0000 0000 0000 0000 0000 0000
000001c0: 0000 0000 0000 0000 0000 0000 0000 0000
000001d0: 0000 0000 0000 0000 0000 0000 0000 0000
000001e0: 0000 0000 0000 0000 0000 0000 0000 0000
000001f0: 0000 0000 0000 0000 0000 0000 0000 0000
00000200: 0000 803f 0000 803f 0000 803f 0000 0000
00000210: 0000 0000 0000 0000 0000 0000 0000 0000
00000220: 0000 0000 0000 0000 0000 0000 0000 0000
00000230: 0000 0000 0000 0000 0000 0000 0000 0000
00000240: 0000 0000 0000 0000 0000 0000 0000 0000
00000250: 0000 0000 0000 0000 0000 0000 0000 0000
00000260: 0000 0000 0000 0000 0000 0000 0000 0000
00000270: 0000 0000 0000 0000 0000 0000 0000 0000
00000280: 0000 0000 0000 0000 0000 0000 0000 0000
00000290: 0000 0000 0000 0000 0000 0000 0000 0000
000002a0: 0000 0000 0000 0000 0000 0000 0000 0000
000002b0: 0000 0000 0000 0000 0000 0000 0000 0000
000002c0: 0000 0000 0000 0000 0000 0000 0000 0000
000002d0: 0000 0000 0000 0000 0000 0000 0000 0000
000002e0: 0000 0000 0000 0000 0000 0000 0000 0000
000002f0: 0000 0000 0000 0000 0000 0000 0000 0000
00000300: 0000 803f 0000 803f 0000 803f 0000 803f
00000310: 0000 0000 0000 0000 0000 0000 0000 0000
00000320: 0000 0000 0000 0000 0000 0000 0000 0000
00000330: 0000 0000 0000 0000 0000 0000 0000 0000
00000340: 0000 0000 0000 0000 0000 0000 0000 0000
00000350: 0000 0000 0000 0000 0000 0000 0000 0000
00000360: 0000 0000 0000 0000 0000 0000 0000 0000
00000370: 0000 0000 0000 0000 0000 0000 0000 0000
00000380: 0000 0000 0000 0000 0000 0000 0000 0000
00000390: 0000 0000 0000 0000 0000 0000 0000 0000
000003a0: 0000 0000 0000 0000 0000 0000 0000 0000
000003b0: 0000 0000 0000 0000 0000 0000 0000 0000
000003c0: 0000 0000 0000 0000 0000 0000 0000 0000
000003d0: 0000 0000 0000 0000 0000 0000 0000 0000
000003e0: 0000 0000 0000 0000 0000 0000 0000 0000
000003f0: 0000 0000 0000 0000 0000 0000 0000 0000
1.0 0.0 0.0 0.0 0.0 0.0 0.0 0.0
0.0 0.0 0.0 0.0 0.0 0.0 0.0 0.0
0.0 0.0 0.0 0.0 0.0 0.0 0.0 0.0
0.0 0.0 0.0 0.0 0.0 0.0 0.0 0.0
0.0 0.0 0.0 0.0 0.0 0.0 0.0 0.0
0.0 0.0 0.0 0.0 0.0 0.0 0.0 0.0
0.0 0.0 0.0 0.0 0.0 0.0 0.0 0.0
0.0 0.0 0.0 0.0 0.0 0.0 0.0 0.0
1.0 1.0 0.0 0.0 0.0 0.0 0.0 0.0
0.0 0.0 0.0 0.0 0.0 0.0 0.0 0.0
0.0 0.0 0.0 0.0 0.0 0.0 0.0 0.0
0.0 0.0 0.0 0.0 0.0 0.0 0.0 0.0
0.0 0.0 0.0 0.0 0.0 0.0 0.0 0.0
0.0 0.0 0.0 0.0 0.0 0.0 0.0 0.0
0.0 0.0 0.0 0.0 0.0 0.0 0.0 0.0
0.0 0.0 0.0 0.0 0.0 0.0 0.0 0.0
1.0 1.0 1.0 0.0 0.0 0.0 0.0 0.0
0.0 0.0 0.0 0.0 0.0 0.0 0.0 0.0
0.0 0.0 0.0 0.0 0.0 0.0 0.0 0.0
0.0 0.0 0.0 0.0 0.0 0.0 0.0 0.0
0.0 0.0 0.0 0.0 0.0 0.0 0.0 0.0
0.0 0.0 0.0 0.0 0.0 0.0 0.0 0.0
0.0 0.0 0.0 0.0 0.0 0.0 0.0 0.0
0.0 0.0 0.0 0.0 0.0 0.0 0.0 0.0
1.0 1.0 1.0 1.0 0.0 0.0 0.0 0.0
0.0 0.0 0.0 0.0 0.0 0.0 0.0 0.0
0.0 0.0 0.0 0.0 0.0 0.0 0.0 0.0
0.0 0.0 0.0 0.0 0.0 0.0 0.0 0.0
0.0 0.0 0.0 0.0 0.0 0.0 0.0 0.0
0.0 0.0 0.0 0.0 0.0 0.0 0.0 0.0
0.0 0.0 0.0 0.0 0.0 0.0 0.0 0.0
0.0 0.0 0.0 0.0 0.0 0.0 0.0 0.0

block.0.sa.heads.1.key.weight f4 [5, 32]
00000000: e79e 58be 4e1c b9be 80e3 dbbd 4ea3 7c3d
00000010: 7b52 89be d119 34bd 2cde adbd 8a14 fb3d
00000020: 1190 4fbe 6f73 b63c ec06 17be 008b b1be
00000030: ff0f ae3e 998a f23d 7b37 473b 4574 8b3e
00000040: 7418 c33e 92e1 ba3e 0432 40be 82f6 2d3c
00000050: 738f 6e3c 0d63 60be ca96 723e 144d 473e
00000060: a3d7 b03c 0420 f9bd 1fbd 54bd 53fa 623e
00000070: 6440 923e 2556 f4bc eefe f3bc 94a5 56bd
00000080: 42de ebbe c7f3 2dbe a260 be3d 260e 2a3e
00000090: 007d 353d 0638 f1bd ba15 9c3d 1cd1 03be
000000a0: 7071 e2bc beae 18be 2cc6 eabd fa00 a23c
000000b0: 1535 d53d 7b82 2d3e decc 2ebe 88be eabd
000000c0: 0fa2 44bd 056d bdbc 8374 6e3b 6d0b 303e
000000d0: dcfd d8bd 8d32 a5be af58 eb3b 5e9b 24be
000000e0: 5375 813e a497 c7bd b535 94bd 281c 8ebd
000000f0: d6ae 1e3e aa76 463d d40e dcbd d4e3 083d
00000100: 23f0 fabd 0bb3 ecbd 514a b63e 14f4 ba3b
00000110: 2698 873d eff4 b6bc 6bf0 7b3e d0af 44bd
00000120: a056 84bd 3eb9 f9bb b6fb 73bd 9ca2 d5bd
00000130: d966 06bc 2534 173b 7e56 c1bd 6716 2dbe
00000140: 74ab f13d 9d9a 5c3e 8716 c03d 44f2 473e
00000150: 9304 dabd 17b1 1bbf 93f7 d13d afa2 26bd
00000160: ed0c 9cbd bef7 96bc a5d4 0dbe 0a45 56bc
00000170: fb34 ca3d cb51 d23c ebae 553e 5d77 2d3d
00000180: 4d5c b73e cd38 653e 2567 acbe a0d9 803d
00000190: e3fc 5cbd 69f7 49be 085c 02be 5d1a 273e
000001a0: 91ae 833d 038f d03b 187e 743d 3283 48be
000001b0: f41e 0e3b e5e2 453e 483e d4bd 28c4 e73d
000001c0: dd9a 423e 7ce8 57be f22d 933e f5d9 08bd
000001d0: 6013 5b3e 33c2 213e 1515 de3d 4663 dd3d
000001e0: 83fb e03b 6658 b3be f782 45bd 5745 c3bd
000001f0: 5127 43be 5165 d4bd 4341 c5bd e16c 7ebd
00000200: e69a d5bc 0daf 353e c810 adbe 7c6a cb3d
00000210: 6be2 913c 6c39 0fbe 3ad3 9d3d f94b 34bd
00000220: 7ad4 d0bd 91fd 0abe 84e1 1b3e 67ff 14be
00000230: 206b 5b3d ac5c 4f3e a25c c63d 6462 1d3d
00000240: 8640 3dbc 6a99 abbd be24 2f3b 35af 11be
00000250: 0214 4fbe 1801 c13e d157 d6bd 83cf a5bd
00000260: ed16 3cbe 117e 2f3e 19ce fbbd 4b4d 433e
00000270: c5d0 92be ff77 893d 5889 943c 38a9 4ebd
-0.21154366 -0.36154407 -0.107367516 0.061679177 -0.2682074 -0.043969933 -0.084896415 0.12259777
-0.202698 0.02227184 -0.14748734 -0.3467636 0.3399658 0.11842842 0.003039806 0.27237144
0.38104594 0.36500221 -0.1876908 0.010617854 0.014560568 -0.21912785 0.23690334 0.19462997
0.021587199 -0.121643096 -0.051938172 0.22165804 0.2856475 -0.029826233 -0.029784646 -0.052404
-0.46068007 -0.16987525 0.09295775 0.1660696 0.044308662 -0.11778264 0.076213315 -0.12872738
-0.027641982 -0.14910409 -0.114635795 0.019775856 0.10410515 0.16944306 -0.17070338 -0.11462122
-0.048006114 -0.023123274 0.0036385364 0.17191859 -0.10595295 -0.3226513 0.007182203 -0.16074893
0.25284824 -0.0974572 -0.07236806 -0.06938964 0.15496382 0.04845301 -0.10745016 0.0334204
-0.12252834 -0.11557587 0.35603574 0.005705366 0.06620817 -0.02233359 0.24603431 -0.04801923
-0.06461835 -0.0076209595 -0.059566222 -0.10431406 -0.008203232 0.0023071852 -0.09440325 -0.16903077
0.1180028 0.21543355 0.09379297 0.19526011 -0.10645404 -0.6081709 0.10252299 -0.04068249
-0.07619653 -0.01842868 -0.13850649 -0.013077984 0.098733865 0.025673768 0.20867507 0.04235016
0.35812607 0.22384949 -0.33672443 0.06291509 -0.05395211 -0.19723286 -0.1273042 0.1631865
0.0642978 0.0063647046 0.059690565 -0.19581297 0.002168593 0.19324835 -0.10363442 0.11316711
0.19004388 -0.2108478 0.2874599 -0.033410985 0.2139411 0.15796737 0.10843865 0.108099505
0.00686592 -0.3502838 -0.0482206 -0.0953471 -0.19057967 -0.10370887 -0.09631588 -0.062115554
-0.026074838 0.17742558 -0.33801866 0.0993242 0.01780816 -0.13986748 0.07706304 -0.044017766
-0.10196777 -0.1357329 0.15222746 -0.14550553 0.05356896 0.20250195 0.09685637 0.03842391
-0.011551028 -0.08378871 0.002672478 -0.14226992 -0.20222476 0.37696147 -0.104659684 -0.0809622
-0.1836812 0.17137934 -0.122951694 0.19072454 -0.28674904 0.067123406 0.018131897 -0.05045435

block.0.sa.heads.1.query.weight f4 [5, 32]
00000000: 4005 4c3d fe20 993e 8014 013f 2efc 59bd
00000010: 2177 983e fbae 723c 8118 e53d fdad cd3d
00000020: 33f6 8d3e 26ef 06be 3aa3 103c a1fe b53e
00000030: cb9a 04bf 7bf6 e0be 7dba 9abe 9b7a c4be
00000040: a0ab f5be 1d69 5cbd de2a 043e 54db d83d
00000050: 74b9 c73d b409 93be ce27 bcbe 726b 55be
00000060: 7321 1d3e c260 133f a79d 093e fab7 fcbe
00000070: 2a09 943d 96fe c13d 237e 7fbe 9f50 60be
00000080: 4042 303f f351 f0bd 0311 79bd 7a08 3a3c
00000090: 38b2 bbbe 94dc 18be b2ae b73d af9e d43e
000000a0: 2caa 23be 28db 9abd 58f6 ee3d 4caf 39be
000000b0: 0539 febc 7306 cfbe aaa6 383e a04e fabd
000000c0: c620 de3d 1d69 4d3e ac7d 8bbe 41a1 91be
000000d0: a9b1 a43e ccb3 96be 8b79 783e 730f 5e3c
000000e0: 1d0c 29be 27f6 36be 25dc 41bd e8a9 333d
000000f0: 56f1 083e 002e 28be 8ce7 9ebe 2d50 5bbd
00000100: 1342 abbd 86d2 3dbd 25f9 2bbe 53f9 54bd
00000110: 7e34 abbe fa1e 81bd efb1 2fbe 243e 433e
00000120: 64d7 88bd 76ba 843d 2481 b33e 4772 b3bd
00000130: 1c73 373c 71e0 dabe dc9e 973e 4b61 0d3e
00000140: 193a 213c d138 9d3e 4475 3dbd 03ef adbe
00000150: e5ed b13e 7e28 8cbd 18a1 823e f9b0 b3be
00000160: 9487 6a3e f8e9 d4bd 4fa8 c83e c14d 26be
00000170: 5ec3 163f f381 943e 733b e7be f7eb 01bd
00000180: ae96 96bc 2f02 cabc 2d16 1e3e 4dd9 a3bd
00000190: 467e 2b3d 3166 913e c9aa 37bd 1e29 50be
000001a0: f904 9a3e 6866 76bd 367a 543d ecb8 883e
000001b0: 9327 0cbd a7bd b2bb d7ea 763e 179a e53c
000001c0: 9343 dbbb 4e16 543e 2073 11be 8936 06be
000001d0: e80b 77be f463 c3bd f450 3fbe 4fa6 60bc
000001e0: d18e b4be b7e1 3dbd 3f71 0fbe b468 6e3d
000001f0: f0b8 b5bc be64 f13d caba a53d 9b7a 0dbe
00000200: 7ab6 dabe 40c7 953e 6f6a 15be dd0e 8c3e
00000210: 075d 883d 14b7 ab3e 8b58 c3be b185 5ebe
00000220: 4735 2d3e ff89 d1bd 81d4 34bf 6756 0b3e
00000230: c7ad 4dbd 58e3 6c3e 72b0 8ebe 2101 333f
00000240: 73b1 0abf 9179 503e 0f60 33be c2f3 553d
00000250: 1de1 473b 0def 523d 18c4 6fbe ad57 7d3e
00000260: b44a c9bc d471 59be c044 f0bc c1a2 ad3e
00000270: 1672 acbe 0d93 95be f2b9 b83e 0855 a33e
0.049809694 0.29907984 0.50421906 -0.053219013 0.29778388 0.014812226 0.111863144 0.10042951
0.27726898 -0.13177165 0.008827979 0.3554583 -0.51798695 -0.4393805 -0.30220404 -0.3837479
-0.47982502 -0.05381118 0.12906978 0.105887085 0.09752169 -0.2871834 -0.3674912 -0.20841768
0.15344791 0.57569516 0.13439046 -0.49359113 0.072283104 0.094723865 -0.24950461 -0.21905755
0.6885109 -0.117343806 -0.06080724 0.01135456 -0.36659408 -0.14927894 0.08968867 0.41527316
-0.15982884 -0.07561332 0.1166808 -0.18133277 -0.031033048 -0.40434608 0.18032327 -0.12222028
0.10846095 0.20059629 -0.27244318 -0.2844334 0.32166794 -0.2943405 0.24265115 0.013553488
-0.16508527 -0.17867337 -0.047329087 0.043863207 0.13373312 -0.16423798 -0.3103603 -0.05354326
-0.08362212 -0.04634335 -0.1679426 -0.051995587 -0.33438486 -0.063047364 -0.1715772 0.19066674
-0.066817075 0.06480877 0.35059464 -0.08762031 0.011196878 -0.4274936 0.29613388 0.13806646
0.009840512 0.3070741 -0.04625441 -0.33971414 0.34751812 -0.06843661 0.2551353 -0.35095957
0.22903281 -0.103961885 0.3919091 -0.16240598 0.58891857 0.29005393 -0.45162544 -0.031719174
-0.018382397 -0.024659244 0.15438147 -0.08000431 0.04186847 0.28398278 -0.044840608 -0.20328185
0.3008192 -0.060156256 0.051874362 0.26703584 -0.03421743 -0.005454737 0.24113022 0.028027577
-0.006691405 0.20711634 -0.14204073 -0.13106741 -0.24125636 -0.09540549 -0.18683225 -0.013711526
-0.3526521 -0.046357837 -0.14008044 0.05820532 -0.022182912 0.11786793 0.08092268 -0.13816302
-0.42717344 0.29253578 -0.14591382 0.2735509 0.066583686 0.33538115 -0.3815349 -0.21730687
0.16914855 -0.10231399 -0.70636755 0.13607179 -0.050214555 0.231336 -0.27868992 0.699236
-0.54177016 0.20358874 -0.17517112 0.05223442 0.0030499168 0.051497508 -0.23414648 0.24740477
-0.024571754 -0.21234828 -0.029329658 0.33913234 -0.3368079 -0.29213753 0.36079365 0.3190081
