models/cmc.pt (torch, 98103 bytes, 6 tensors)

fc1.weight f4 [128, 50]
-0.10195837 -0.51339823 -0.11267054 -0.033853397 -0.23672073 0.10924188 0.6867253 0.582911
-0.343256 -0.3466107 -0.26185977 -0.17673118 -0.3918004 0.4947305 -0.2507322 -0.22263455
-0.64192903 -1.1078818 0.7964747 -0.06870547 -0.034330674 -0.5457851 -0.13358185 0.66124845
-0.47032943 0.008848585 -0.03028256 -0.17320496 -0.6065802 0.20156164 -0.5620177 0.04852139
0.18381307 0.05731 -0.23409924 -0.10180194 -0.07634979 0.20251106 -0.1715063 0.5262836
0.005602615 0.36639017 -0.008449629 0.2696714 -0.022362927 -0.41604838 0.21016613 0.43640822
0.28273627 -0.036009908 0.7016618 -0.1713339 -0.12492667 0.06664666 0.06363248 -0.17139249
-0.026080655 -0.07568283 0.3028626 0.292202 0.08155869 0.39598936 0.007009611 0.083065726
0.19920391 -0.47534382 -0.2594335 0.4020976 0.68730885 -0.14293806 -0.25576255 0.14337058
-0.27327284 -0.383646 -0.1522234 0.17996351 -0.57063764 -0.53336614 -0.60535103 -0.14134812
-0.20698674 -0.34863 0.2237775 0.077181384 0.43654993 0.10291579 0.066199265 0.0006264874
-0.11608693 -0.22910304 0.38618797 0.17978482 0.4036737 0.18248633 0.041774087 0.846436
-0.29393768 0.08142708 -1.5429257 0.04715891 -0.061025616 -0.42086428 0.4952992 0.1877921
0.1941767 -0.5747973 -0.09768967 -0.52688396 -0.06960118 -0.16871795 0.49008882 -0.23711982
0.40293285 0.7822079 0.29103205 0.008095726 -0.24563582 0.55534476 -0.020180678 0.041931283
0.24419868 -0.05698142 0.4082342 -0.3249223 -0.69999415 0.42286184 0.51356524 -0.13271154
-0.21280429 0.67285115 -0.1152787 0.14015415 -0.059928373 -0.023188282 -0.050457 0.72244877
0.028709067 0.12854648 -0.27809542 -0.36407027 -0.38752833 -0.313626 0.71182823 0.2425812
0.2944721 0.023638709 -0.4865227 0.56070155 -0.057680678 0.48326343 -0.23272982 -0.36365765
0.95676994 0.044300567 0.5757448 0.09421885 -0.89639133 0.45056745 0.16413476 -0.16124852
0.5849987 0.021284733 0.2075264 0.106672086 0.6391987 -0.4390066 0.41797388 -0.42177323
-0.022666799 -0.6655735 0.66235006 -0.18415727 0.079686776 -0.054512348 -0.14131992 -0.36779374
0.06672195 -0.7972185 -0.18670622 -0.29427496 0.095161706 -0.0674691 -0.022185925 -0.18223688
-0.4369036 -0.10428807 -0.43560082 0.26975083 -0.8750198 -0.2597259 0.5894447 0.8910622
0.36049134 -0.7615959 0.18446626 -0.40344286 -0.5739537 -0.19835879 -0.37698603 0.080052786
-0.21836384 0.20655167 -0.18245108 -0.15629564 -0.18477261 0.41859895 0.60790056 -0.012261066
0.07877005 0.040307403 0.13611476 0.7748 0.32516518 -0.46252733 -0.14636567 0.6381153
-0.48357037 0.45222154 0.19567668 -0.22933418 0.18447585 0.31864622 0.27632612 -0.5587818
0.34180805 -0.41913357 -0.082275905 -0.2663127 0.31186593 0.05935955 -0.17878148 0.25648117
0.1319336 0.37376356 0.20092946 -0.47698587 -0.75977564 0.6777744 -0.24922827 -0.28421596
-0.05691376 0.5289321 0.87381846 0.088731684 0.98426384 0.23509134 0.32148215 -0.17402904
-0.5288156 -0.008413794 0.24689537 0.12800972 -1.0277693 -0.62512106 0.5495527 0.43739712
00000000: 8dcf d0bd 116e 03bf d0bf e6bd dca9 0abd
00000010: eb66 72be 35ba df3d 3bcd 2f3f a839 153f
00000020: 40bf afbe f576 b1be 7c12 86be 05f9 34be
00000030: 109a c8be 514d fd3e f95f 80be 50fa 63be
00000040: 7655 24bf 12cf 8dbf c4e5 4b3f 74b5 8cbd
00000050: 529e 0cbd 93b8 0bbf aec9 08be 9447 293f
00000060: 05cf f0be a8f9 103c 2213 f8bc a45c 31be
00000070: d748 1bbf 2d66 4e3e 64e0 0fbf 5dbe 463d
00000080: 7e39 3c3e e4bd 6a3d b6b7 6fbe 897d d0bd
00000090: 475d 9cbd 0f5f 4f3e 599f 2fbe 86ba 063f
000000a0: 2496 b73b 7e97 bb3e 5070 0abc 5f12 8a3e
000000b0: 7532 b7bc 4b04 d5be ca35 573e e670 df3e
000000c0: cfc2 903e 207f 13bd 1ca0 333f 2772 2fbe
000000d0: 8ed9 ffbd 0b7e 883d bf51 823d 8381 2fbe
000000e0: 19a7 d5bc 99ff 9abd cf10 9b3e 809b 953e
000000f0: 3e08 a73d 1ebf ca3e e1b0 e53b 5d1e aa3d
00000100: 1cfc 4b3e 4460 f3be 78d4 84be bddf cd3e
00000110: 79f3 2f3f 5b5e 12be 4ff3 82be bdcf 123e
00000120: 6bea 8bbe 406d c4be 73e0 1bbe 5b48 383e
00000130: 4f15 12bf af8a 08bf 49f8 1abf 90bd 10be
00000140: 55f4 53be a27f b2be ee25 653e 4611 9e3d
00000150: 7983 df3e 84c5 d23d 7b93 873d dc3a 243a
00000160: fcbe edbd fd99 6abe 6eba c53e 8319 383e
00000170: 52ae ce3e b2dd 3a3e 4e1b 2b3d 08b0 583f
00000180: 007f 96be 3ec3 a63d 977e c5bf b429 413d
00000190: fff5 79bd 867b d7be db97 fd3e 924c 403e
000001a0: 42d6 463e ea25 13bf 8611 c8bd dee1 06bf
000001b0: 108b 8ebd 66c4 2cbe ecec fa3e 8acf 72be
000001c0: 374d ce3e c73e 483f 2702 953e f0a3 043c
000001d0: f587 7bbe 132b 0e3f f351 a5bc 23c0 2b3d
000001e0: 380f 7a3e 5965 69bd 1304 d13e 375c a6be
000001f0: d132 33bf 5981 d83e 0379 033f 89e5 07be
00000200: 5ee9 59be f93f 2c3f 3d17 ecbd 9284 0f3e
00000210: 7477 75bd 5af5 bdbc 00ac 4ebd 67f2 383f
00000220: 472f eb3c b0a1 033e 8662 8ebe 6b67 babe
00000230: 1d6a c6be 9693 a0be 603a 363f 3567 783e
00000240: 0cc5 963e f7a5 c13c 8119 f9be 238a 0f3f
00000250: 9342 6cbd 4e6e f73e ba50 6ebe 5631 babe
00000260: e0ee 743f 8374 353d 0364 133f d0f5 c03d
00000270: e779 65bf c7b0 e63e f112 283e 551e 25be
00000280: 7ac2 153f 525d ae3c cd81 543e e576 da3d
00000290: 87a2 233f 79c5 e0be ac00 d63e a9f2 d7be
000002a0: b9af b9bc 0663 2abf c68f 293f b993 3cbe
000002b0: d232 a33d 5748 5fbd 2bb6 10be 764f bcbe
000002c0: 85a5 883d 8316 4cbf ea2f 3fbe 35ab 96be
000002d0: 24e4 c23d 3d2d 8abd 42bf b5bc 4e9c 3abe
000002e0: d4b1 dfbe fc94 d5bd 1207 dfbe c81c 8a3e
000002f0: 4c01 60bf cbfa 84be d9e5 163f a71c 643f
00000300: 5292 b83e f3f7 42bf b9e4 3c3e 1090 cebe
00000310: a1ee 12bf 911e 4bbe 5004 c1be b7f2 a33d
00000320: c59a 5fbe 4882 533e 75d4 3abe f70b 20be
00000330: 0835 3dbe 9a52 d63e 5f9f 1b3f a3e2 48bc
00000340: 3152 a13d 6019 253d ab61 0b3e 4b59 463f
00000350: 0d7c a63e 62d0 ecbe e2e0 15be 865b 233f
00000360: 8996 f7be 9589 e73e 785f 483e 94d6 6abe
00000370: 3de7 3c3e 9925 a33e 9e7a 8d3e 530c 0fbf
00000380: 7701 af3e ad98 d6be 4580 a8bd 235a 88be
00000390: e4ac 9f3e 0023 733d 7e12 37be 8051 833e
000003a0: 9a19 073e f05d bf3e 74c0 4d3e 7e37 f4be
000003b0: a880 42bf a082 2d3f b235 7fbe c184 91be
000003c0: 671e 69bd 1868 073f 91b2 5f3f f5b8 b53d
000003d0: b7f8 7b3f c9bb 703e 4f99 a43e ab34 32be
000003e0: 7660 07bf 03da 09bc 24d2 7c3e fb14 033e
000003f0: f28d 83bf ef07 20bf 7caf 0c3f 84f2 df3e

fc1.bias f4 [128]
0.10609477 -0.5957749 -0.565625 -0.41801336 -0.3476566 -0.47200412 -0.08309984 -0.13924006
-0.12909433 -0.44651452 -0.0060672252 -0.3940816 -0.06582823 -0.0074396427 0.05651125 -0.5407276
-0.21630317 -0.5924406 -0.42334524 -0.6806125 -0.46433878 -0.44968167 -0.053597283 -0.44691825
0.07370746 -0.34632164 -0.26871496 -0.5763336 0.05797543 -0.20546655 -0.022587253 -0.14077798
-0.0702878 -0.031258203 0.05464687 -0.35526758 0.07329516 -0.25436923 0.081568524 -0.0024928397
-0.36554065 -0.023696477 0.07847054 -0.2892599 -0.4933257 -0.092108674 -0.34590596 -0.15711965
-0.050614446 -0.07975256 -0.09504502 -0.29265407 -0.08613826 -0.06361283 -0.023416445 0.052164923
-0.106926315 -0.099808566 -0.007199044 -0.069265 0.11941702 -0.18058738 -0.57376665 0.05308182
-0.27932408 0.10062485 -0.79046166 -0.05562872 -0.048481606 -0.5663538 -0.08750825 -0.29943654
-0.011183574 0.10932294 -0.18987626 -0.20730299 -0.26640984 -0.45014003 -0.45448193 0.07927593
-0.4839182 -0.2976446 0.16734725 -0.06766255 -0.11836655 -0.3539093 -0.13957763 0.06209631
-0.36728123 -0.3780674 -0.07849984 -0.7169592 -0.3326041 -0.49564543 -0.5854131 -0.16955954
-0.34909824 -0.28684792 -0.21394531 0.008157446 -0.30206704 0.020141039 -0.2433986 -0.10153298
-0.37146893 -0.13258006 -0.292156 0.036472797 -0.29898524 0.03498107 -0.35391387 0.07032011
-0.6211611 0.11206963 -0.34075838 0.038257375 -0.2987554 -0.051315185 -0.4302783 0.032778148
0.063025795 -0.07053967 -0.06723297 -0.22298485 -0.0050383424 0.11948539 0.08627401 -0.103688486
00000000: 3748 d93d b484 18bf cdcc 10bf d905 d6be
00000010: 0c00 b2be 86aa f1be 4030 aabd f294 0ebe
00000020: 4e31 04be 8d9d e4be 93cf c6bb 10c5 c9be
00000030: f3d0 86bd 3fc8 f3bb 5778 673d 206d 0abf
00000040: 947e 5dbe 30aa 17bf b5c0 d8be 9f3c 2ebf
00000050: d0bd edbe ad3c e6be d388 5bbd 78d2 e4be
00000060: f0f3 963d 1251 b1be 0295 89be 998a 13bf
00000070: a577 6d3d d365 52be e708 b9bc 1a28 10be
00000080: 0df3 8fbd 9a08 00bd 65d5 5f3d a2e5 b5be
00000090: c61b 963d af3c 82be 660d a73d e95e 23bb
000000a0: 2528 bbbe 1d1f c2bc 2ab5 a03d e019 94be
000000b0: 3095 fcbe 79a3 bcbd 961a b1be f9e3 20be
000000c0: 1851 4fbd 4f55 a3bd f7a6 c2bd c1d6 95be
000000d0: 4269 b0bd 7247 82bd d8d3 bfbc e3aa 553d
000000e0: 2ffc dabd 6f68 ccbd f5e5 ebbb cfda 8dbd
000000f0: e990 f43d e6eb 38be 5fe2 12bf 536c 593d
00000100: 9103 8fbe 6714 ce3d b25b 4abf f1da 63bd
00000110: a694 46bd 90fc 10bf 8637 b3bd bf4f 99be
00000120: 4f3b 37bc b5e4 df3d ec6e 42be 3c47 54be
00000130: df66 88be c178 e6be dbb1 e8be 6b5b a23d
00000140: 20c4 f7be df64 98be 145d 2b3e aa92 8abd
00000150: 296a f2bd 9a33 b5be 70ed 0ebe b358 7e3d
00000160: 490c bcbe 0d92 c1be 86c4 a0bd a38a 37bf
00000170: 164b aabe 3dc5 fdbe a2dd 15bf 04a1 2dbe
00000180: 01bd b2be bbdd 92be 7b14 5bbe cfa6 053c
00000190: 88a8 9abe d2fe a43c 7c3d 79be 86f0 cfbd
000001a0: 2d31 bebe 11c3 07be 7995 95be 8064 153d
000001b0: 9814 99be 4f48 0f3d 3334 b5be fd03 903d
000001c0: 6a04 1fbf c384 e53d e277 aebe c4b3 1c3d
000001d0: 78f6 98be df2f 52bd 704d dcbe 6142 063d
000001e0: ab13 813d 1a77 90bd 70b1 89bd 2456 64be
000001f0: ae18 a5bb c2b4 f43d 6eb0 b03d a15a d4bd

fc2.weight f4 [128, 128]
0.547936 0.22705624 -1.2566904 0.30282018 0.32871714 -0.9502629 -0.363662 -0.34397152
-0.47907686 -0.21617945 -0.6350008 -0.18167086 -0.21177576 0.6612349 -0.15704484 -0.6562603
0.3143742 0.20902623 -1.0902052 -0.14053279 0.99235773 1.0655047 -0.07528575 0.3879925
-0.20594722 -0.5075211 0.05638355 0.22420488 -0.0144929 0.56135625 -1.1143266 -0.20229262
-0.7610646 -0.5213669 0.29114124 0.36256588 0.29299262 -0.57633543 -0.12557536 0.1164504
0.19428757 -0.075485595 -1.14178 0.8389344 0.22351888 -0.046674863 0.62480205 -0.1527087
0.88502926 -0.29103693 -1.04853 -0.38885185 0.4979932 -0.26676568 -0.48834893 -0.39487475
0.1018782 0.19867593 -0.41304395 -0.30693617 -0.19378906 0.5563641 -1.0612231 -0.48652405
-0.16361162 0.02402571 -0.03200646 -1.0052866 -0.17447178 -0.29574826 -0.05952843 0.6472624
-0.15793438 0.64347243 -1.1104875 -0.0819639 0.038409706 -0.6024954 -0.21233124 -1.8684416
-0.037411034 -0.70033103 0.6387469 -0.6747716 -0.2782753 -0.5113946 -0.362087 -0.10783489
-0.26404297 0.75620216 -1.4270496 -0.18691833 -0.19096069 -0.20672403 0.61318773 0.42619556
-0.13889563 0.24052948 -0.20811485 -1.2822613 0.6378011 -1.3642148 0.059108034 -0.42965564
-0.16256239 -0.46109873 0.35262865 0.912826 0.18319367 -0.36804408 0.37032253 0.40629283
0.37811527 -0.21939486 0.2542139 0.2963239 -0.88460225 0.5595277 0.32932833 0.22083397
-0.28710678 -0.60308343 0.15596056 0.024405824 -0.25603676 -0.102448985 -0.99107397 -0.2061694
0.17906445 -1.0075872 -0.15805808 0.1611418 -0.14138386 -0.48061866 0.23388296 0.34898677
-0.49273437 -0.6832977 0.01580115 0.16321684 -0.23665197 0.21546409 -0.9337687 0.2794878
-0.115486406 0.13871731 0.04525475 -0.23556966 0.16317709 -0.20558251 -0.11884208 -0.13159049
0.27853867 -0.50106615 0.5819976 0.18962844 -0.22286174 -0.4305099 0.43823567 0.26067668
-0.021000508 0.48930147 -0.85304797 -0.89511234 -0.20706584 0.09133904 -0.14989348 -0.46272612
0.0890408 0.5477906 0.02735109 -0.4571335 0.8149389 -0.8593407 0.20834732 0.21629009
0.21748039 0.32204986 0.4625145 0.08261968 0.10095578 -0.6925925 -0.71010053 0.38328657
0.44425333 0.15110345 -0.11542025 -0.28197366 0.20609869 0.5580715 0.6699976 0.53829
0.12788548 -0.10323711 -0.3826423 -0.052328084 0.22829777 0.5187085 0.33543363 0.8941052
0.1727702 -0.21249051 -1.1537272 -0.36844304 -0.11933988 0.36125827 0.028347386 -0.031711224
-1.0478033 -0.03451133 -0.13154696 -0.050951947 -0.18496214 0.4347134 -0.48929557 -0.8215165
-0.28906292 -0.47182852 -0.3503827 0.9873426 -0.21459362 0.09855491 -0.07541287 0.48837715
-0.45306233 0.19911383 -0.14503492 0.25120357 0.25726143 0.102955125 0.2846568 -0.005411836
-0.30104616 -0.07457439 -0.1077402 -0.30468023 -0.14100483 0.12817414 0.4245359 -0.17613392
-0.09739206 -0.9055555 0.038238846 0.265963 0.28978485 0.1405113 0.40426844 0.043613616
-0.016080929 0.30635118 0.33528897 -0.09230599 -0.051226113 0.369226 0.4232447 -0.24212565
00000000: 8945 0c3f 6e81 683e 3bdb a0bf 3f0b 9b3e
00000010: 9d4d a83e 6e44 73bf e831 babe 091d b0be
00000020: 9049 f5be 255e 5dbe 6a8f 22bf ed07 3abe
00000030: bfdb 58be b146 293f 5dd0 20be ad00 28bf
00000040: a8f5 a03e f90a 563e d88b 8bbf d4e7 0fbe
00000050: 280b 7e3f 7562 883f 6a2f 9abd f4a6 c63e
00000060: d4e3 52be e7ec 01bf 70f2 663d f795 653e
00000070: a173 6dbc 0bb5 0f3f 41a2 8ebf cc25 4fbe
00000080: 21d5 42bf 4d78 05bf 7710 953e 3ca2 b93e
00000090: 2103 963e b88a 13bf d496 00be 8c7d ee3d
000000a0: 52f3 463e 3198 9abd d925 92bf 68c4 563f
000000b0: 22e2 643e 242e 3fbd 07f3 1f3f ab5f 1cbe
000000c0: 4791 623f cb02 95be 3b36 86bf 9717 c7be
000000d0: f7f8 fe3e 8395 88be df08 fabe 062d cabe
000000e0: 85a5 d03d b471 4b3e 7f7a d3be bd26 9dbe
000000f0: a470 46be e16d 0e3f 29d6 87bf ae19 f9be
00000100: ce89 27be 91d1 c43c 3519 03bd 3bad 80bf
00000110: bba8 32be 516c 97be 15d4 73bd fdb2 253f
00000120: 8db9 21be 9cba 243f 7424 8ebf b0dc a7bd
00000130: 7f53 1d3d 233d 1abf 5c6d 59be 1829 efbf
00000140: 503c 19bd e548 33bf eb84 233f d5bd 2cbf
00000150: 1a7a 8ebe c2ea 02bf 7863 b9be 8ad8 dcbd
00000160: a430 87be 7796 413f 90a9 b6bf 8567 3fbe
00000170: 338b 43be 77af 53be dff9 1c3f 4e36 da3e
00000180: a83a 0ebe 5c4d 763e 0f1c 55be 2321 a4bf
00000190: ef46 233f 979e aebf 441b 723d d3fb dbbe
000001a0: c176 26be 2215 ecbe be8b b43e f7ae 693f
000001b0: 1f97 3b3e 4670 bcbe ea9a bd3e 9d05 d03e
000001c0: 5398 c13e 0ca9 60be 5328 823e c4b7 973e
000001d0: 4b75 62bf 353d 0f3f b99d a83e 4d22 623e
000001e0: a9ff 92be ad63 1abf 20b4 1f3e b9ee c73c
000001f0: 4017 83be c6d0 d1bd 06b7 7dbf 121e 53be
00000200: ac5c 373e 9ef8 80bf fad9 21be 5b02 253e
00000210: eec6 10be a613 f6be 047f 6f3e 65ae b23e
00000220: ae47 fcbe 99ec 2ebf 6a71 813c 5122 273e
00000230: e554 72be 9ea2 5c3e 770b 6fbf 0619 8f3e
00000240: 2384 ecbd e90b 0e3e 0b5d 393d 2c39 71be
00000250: e517 273e 3984 52be 7a63 f3bd a8bf 06be
00000260: 9f9c 8e3e df45 00bf cbfd 143f f52d 423e
00000270: de35 64be cb6b dcbe 6d60 e03e 6a77 853e
00000280: 4209 acbc b985 fa3e 5a61 5abf 1526 65bf
00000290: 1109 54be f60f bb3d ad7d 19be 70ea ecbe
000002a0: 065b b63d 013c 0c3f 650f e03c 670d eabe
000002b0: d69f 503f c1fd 5bbf 0059 553e 267b 5d3e
000002c0: 2eb3 5e3e b8e3 a43e b3ce ec3e 8234 a93d
000002d0: e7c1 ce3d be4d 31bf 26c9 35bf 233e c43e
000002e0: 2c75 e33e ddba 1a3e 7461 ecbd da5e 90be
000002f0: 890b 533e c6dd 0e3f f684 2b3f 60cd 093f
00000300: 69f4 023e fa6d d3bd b1e9 c3be f955 56bd
00000310: e4c6 693e 15ca 043f f5bd ab3e 14e4 643f
00000320: acea 303e 1d97 59be 55ad 93bf 91a4 bcbe
00000330: 7868 f4bd d8f6 b83e c738 e83c a1e3 01bd
00000340: 6b1e 86bf c15b 0dbd 3fb4 06be fdb2 50bd
00000350: b766 3dbe c192 de3e f384 fabe e84e 52bf
00000360: 0e00 94be 8293 f1be 5c65 b3be 7cc2 7c3f
00000370: 6ebe 5bbe 28d7 c93d 1072 9abd 920c fa3e
00000380: c9f7 e7be 7fe4 4b3e 0984 14be c19d 803e
00000390: c5b7 833e 23da d23d 89be 913e c555 b1bb
000003a0: b922 9abe 75ba 98bd e5a6 dcbd 0cff 9bbe
000003b0: 9263 10be 1540 033e c55c d93e 735c 34be
000003c0: 7d75 c7bd 7cd2 67bf 56a0 1c3d 4d2c 883e
000003d0: ae5e 943e 32e2 0f3e 46fc ce3e 31a4 323d
000003e0: 27bc 83bc 10da 9c3e ffaa ab3e ec0a bdbd
000003f0: 79d2 51bd 310b bd3e 88b3 d83e c9ef 77be

fc2.bias f4 [128]
-0.17004584 0.084100716 -0.0023158458 -0.06677966 0.015791982 0.24601813 0.09760016 0.18881592
0.21341096 0.1340697 -0.23860863 0.12039492 0.07242616 0.008273273 0.089935854 -0.016336624
0.07248417 0.1737014 -0.07136327 0.1336899 0.089658685 0.2145859 0.038240634 0.2301558
0.4405021 0.21312737 -0.20862731 0.29813445 0.2742817 -0.001133432 0.01124056 0.054376677
-0.0070239035 -0.1193236 0.138869 -0.076783195 0.24312511 -0.011123458 -0.054841116 -0.048391428
0.17874755 0.048704326 -0.28311267 0.013982506 -0.17370382 -0.02244244 0.1920618 0.14202458
0.19081481 0.10047796 0.29595563 -0.32133505 0.13158566 0.016309742 -0.076435156 -0.11539379
-0.27594024 0.15889338 -0.02317137 -0.44357967 0.00067624345 -0.10323585 -0.33840886 -0.009031649
-0.0913026 0.06701276 -0.022254685 -0.056389775 0.15881662 -0.09465525 -0.14030455 0.27545133
-0.006871375 0.23980552 -0.18770333 0.22336973 -0.02403171 -0.06365747 -0.26856586 0.16202597
0.2225236 -0.14486279 -0.28018916 0.1557655 -0.101986036 0.0071381037 0.044510636 0.06969192
-0.5010079 0.15067694 0.14031939 0.0122376215 -0.15060666 -0.017557973 -0.15592483 -0.57132393
0.26392302 -0.07908815 0.20089154 -0.2141118 0.36869782 0.15948741 0.27178144 -0.11693758
0.0013303135 -0.1566456 0.3480812 0.22337833 0.07399691 0.05852213 -0.021764468 -0.017384214
0.21229921 -0.020994352 -0.04959636 -0.024411647 0.067111574 0.052180886 0.12577952 0.18556066
0.16649766 0.12980926 0.33213168 -0.5359558 0.048475303 -0.20845741 0.26717168 -0.11035067
00000000: 7f20 2ebe ff3c ac3d 72c5 17bb c6c3 88bd
00000010: 305e 813c 2dec 7b3e 98e2 c73d f658 413e
00000020: 6788 5a3e 9149 093e d255 74be 9d91 f63d
00000030: 2b54 943d 9f8c 073c 4a30 b83d 62d4 85bc
00000040: 9572 943d c8de 313e e826 92bd 01e6 083e
00000050: f99e b73d 68bc 5b3e 36a2 1c3d f6ad 6b3e
00000060: 7e89 e13e 103e 5a3e 66a2 55be 14a5 983e
00000070: a76e 8c3e ab8f 94ba 532a 383c 14ba 5e3d
00000080: c628 e6bb ee5f f4bd ad33 0e3e 8240 9dbd
00000090: caf5 783e 2a3f 36bc 14a1 60bd 1736 46bd
000000a0: 9909 373e 307e 473d 25f4 90be e116 653c
000000b0: 6adf 31be 35d9 b7bc d9ab 443e e46e 113e
000000c0: f564 433e 64c7 cd3d 7f87 973e 0786 a4be
000000d0: 64be 063e 029c 853c 098a 9cbd 9453 ecbd
000000e0: 0a48 8dbe f2b4 223e e3d1 bdbc e01c e3be
000000f0: ee45 313a 516d d3bd ed43 adbe 7bf9 13bc
00000100: dcfc babd fc3d 893d 754f b6bc f7f8 66bd
00000110: d3a0 223e 9dda c1bd ffab 0fbe f507 8d3e
00000120: 4529 e1bb 948f 753e 4d35 40be 09bb 643e
00000130: 26de c4bc d95e 82bd 7781 89be 23ea 253e
00000140: 3add 633e e956 14be f474 8fbe fe80 1f3e
00000150: 0ede d0bd c1e6 e93b c950 363d a3ba 8e3d
00000160: 0e42 00bf 0e4b 1a3e e3af 0f3e 4e80 483c
00000170: a238 1abe bdd5 8fbc c2aa 1fbe 4942 12bf
00000180: eb20 873e f8f8 a1bd 83b6 4d3e 2040 5bbe
00000190: f6c5 bc3e ab50 233e f026 8b3e f87c efbd
000001a0: ea5d ae3a b467 20be b337 b23e 4abd 643e
000001b0: b18b 973d e7b4 6f3d 664b b2bc 5769 8ebc
000001c0: f764 593e 59fc abbc 8e25 4bbd effa c7bc
000001d0: cb71 893d a0bb 553d 59cc 003e 9d03 3e3e
000001e0: 5d7e 2a3e b8ec 043e 2a0d aa3e 6634 09bf
000001f0: 0a8e 463d dc75 55be baca 883e 88ff e1bd

fc3.weight f4 [8, 128]
0.6800336 -0.51298696 -0.86349267 -2.130858 0.13835736 -1.9487666 -2.010035 0.015796026
-0.15638919 1.3855283 -0.22363901 0.8389438 0.33693624 -1.7363116 0.09399091 0.3226607
-0.00016048821 -0.682305 0.98456824 0.41644186 -0.81683165 1.9567012 0.45408487 -1.5341059
-1.359407 0.5378008 0.25366056 0.1104824 0.31525484 1.4466114 -2.5648353 -5.4294205
0.06120715 -2.5162666 0.30425927 0.20004106 -1.1052219 -0.9592933 1.0692983 1.3376468
0.6780036 0.25363874 0.6707519 -0.961813 -0.621866 -0.39557552 -0.31422693 0.2079445
0.28946677 -1.3600689 0.49566358 0.45847985 0.73308635 0.78987485 -0.07895812 -1.0092968
-1.2195449 -3.540638 -2.8531415 0.36194083 0.2004726 0.0064230543 -2.8365736 0.5794246
-0.7368534 0.7759576 0.03297553 -4.991285 -1.7026137 -0.045518454 0.047644723 0.33402258
0.33912745 -2.917497 -0.11180943 0.5325287 -2.7989256 0.13489453 0.073788516 1.1018438
-0.06299155 -1.0122066 0.65278167 -1.3745881 1.1099484 -0.15595092 0.053537063 1.0132065
-0.11839303 0.019683478 0.68915814 -0.74281925 0.24172513 1.7239131 -2.0217414 0.2008627
-0.35831007 -0.44598326 -2.2312393 -1.300229 1.696283 0.057429105 -2.4507127 -0.041663427
-0.7949787 0.09641683 1.1721582 -3.5761917 0.4876323 0.34331906 -0.042681776 -0.17510094
0.6532176 -0.17945792 0.96932286 0.96171236 0.29165742 -0.11469662 0.2512357 1.4244016
0.5568573 0.004506979 -4.9209075 0.23130904 0.6790374 0.30295986 0.017481474 1.6765088
-0.36278394 -0.55748796 -0.4488524 -1.6729872 -0.811378 -1.3838191 -1.2884961 -1.4641212
-1.6965353 -0.8337177 -0.077190995 -0.7640127 -1.004478 -0.47865024 -1.3381231 -0.04795936
-0.37183002 -1.9869833 -0.31324282 -0.5900852 -0.43825808 -0.8338091 -1.5907876 -2.3572848
-0.30018878 -0.9888083 -0.89630634 -0.17435052 -1.1165812 -0.32745948 -1.336547 -2.4907014
-0.7473759 -0.4349377 -1.2068195 -0.7448828 -2.3948605 -0.31729546 0.045997683 -0.91265434
-0.16683617 -0.8738099 -0.40831673 -1.1409428 -0.27638927 -0.84086144 -1.225601 -1.4184103
-0.9408701 -2.364747 -1.6973419 -0.7257804 -0.44362238 -0.49153072 -0.036927275 -0.22116393
-1.5391402 -2.0374913 -0.3029992 -0.01428114 -0.35153446 -0.058822528 -0.46375364 -1.1486338
-0.5161059 -0.37182903 -0.02230441 -2.2895746 -1.8166294 -1.1142594 -0.013245136 -1.6907911
-0.1512339 -0.295119 -0.26079938 -0.10232531 -2.0157967 -0.6099431 -0.47262362 -0.5244163
-1.9156487 -1.2588001 -0.30411863 -0.8101828 -0.7112693 -1.6063478 -0.69672734 -0.10207584
0.02478953 -2.3221412 -0.9938926 -1.1895616 -0.3351539 -0.37969005 -0.682318 -0.1819033
-0.48623425 -0.7960166 -1.6416409 -0.022506913 -0.50331914 0.0404754 -0.22130921 -0.047005717
-0.7232829 -1.1703198 -0.33261994 -2.5985992 -0.5908178 -0.71782917 0.050378103 -0.00031706554
-0.36489996 -0.7352166 -0.19123195 -0.9604523 -0.04674903 -0.17967457 -0.93591785 0.01783757
-0.2627768 -1.533213 -2.2607694 -0.00665674 -0.347148 -0.46335185 -1.9773535 0.08679066
00000000: af16 2e3f 1d53 03bf db0d 5dbf fa5f 08c0
00000010: 8dad 0d3e 2f71 f9bf 6aa4 00c0 ab66 813c
00000020: 7d24 20be fe58 b13f a001 65be 05c5 563f
00000030: e882 ac3e 753f debf 4e7e c03d c933 a53e
00000040: ba48 28b9 8aab 2ebf aa0c 7c3f de37 d53e
00000050: e11b 51bf 2f75 fa3f d07d e83e 955d c4bf
00000060: 0c01 aebf 50ad 093f ccdf 813e 9944 e23d
00000070: 1569 a13e 902a b93f 4326 24c0 d0bd adc0
00000080: 59b4 7a3d 830a 21c0 dfc7 9b3e 90d7 4c3e
00000090: e977 8dbf 3f94 75bf c4de 883f 0338 ab3f
000000a0: a591 2d3f f0dc 813e 66b6 2b3f 6039 76bf
000000b0: 9c32 1fbf e088 cabe 5ae2 a0be 67ef 543e
000000c0: fd34 943e bd16 aebf 9ec7 fd3e dfbd ea3e
000000d0: 8cab 3b3f 3d35 4a3f cbb4 a1bd a330 81bf
000000e0: 0c1a 9cbf d099 62c0 df99 36c0 4f50 b93e
000000f0: b048 4d3e 7c78 d23b 6c8a 35c0 2c55 143f
00000100: 6da2 3cbf 28a5 463f 5911 073d 9bb8 9fc0
00000110: 3fef d9bf 8f71 3abd 1d27 433d 0205 ab3e
00000120: 1da2 ad3e 45b8 3ac0 58fc e4bd cd53 083f
00000130: 9921 33c0 cb21 0a3e 6f1e 973d 3809 8d3f
00000140: b701 81bd fc8f 81bf b31c 273f 81f2 afbf
00000150: ca12 8e3f 99b1 1fbe ae49 5b3d c0b0 813f
00000160: 0b78 f2bd 3f3f a13c ab6c 303f 6729 3ebf
00000170: cb86 773e 2fa9 dc3f 3664 01c0 f4ae 4d3e
00000180: 6b74 b7be eb57 e4be a0cc 0ec0 e76d a6bf
00000190: cd1f d93f c83a 6b3d 7ad8 1cc0 45a7 2abd
000001a0: b983 4bbf 3076 c53d 4809 963f 53e0 64c0
000001b0: f1aa f93e 84c7 af3e 16d3 2ebd a94d 33be
000001c0: 4539 273f d1c3 37be 8b25 783f c832 763f
000001d0: 1f54 953e 10e6 eabd f7a1 803e cb52 b63f
000001e0: 338e 0e3f 48af 933b 1378 9dc0 47dc 6c3e
000001f0: 65d5 2d3f 8e1d 9b3e 4f35 8f3c d797 d63f
00000200: d1be b9be 88b7 0ebf fbcf e5be 7224 d6bf
00000210: 78b6 4fbf fc20 b1bf 71ed a4bf 5368 bbbf
00000220: 1228 d9bf 866e 55bf 5016 9ebd 5696 43bf
00000230: bc92 80bf a511 f5be 9e47 abbf 0971 44bd
00000240: 8160 bebe 7855 febf 5d61 a0be d30f 17bf
00000250: 5d63 e0be 8374 55bf ee9e cbbf c1dd 16c0
00000260: 58b2 99be 8a22 7dbf 5574 65bf f188 32be
00000270: 22ec 8ebf c5a8 a7be f913 abbf a767 1fc0
00000280: 0754 3fbf 27b0 debe 1079 9abf a4b0 3ebf
00000290: 6545 19c0 8d74 a2be 1168 3c3d b7a3 69bf
000002a0: 1ad7 2abe 01b2 5fbf e40e d1be 6a0a 92bf
000002b0: e582 8dbe b242 57bf 7ee0 9cbf 788e b5bf
000002c0: dddc 70bf 0458 17c0 8042 d9bf bfcc 39bf
000002d0: 7922 e3be eaa9 fbbe 0e41 17bd cc78 62be
000002e0: 8c02 c5bf 4266 02c0 b622 9bbe 71fb 69bc
000002f0: 53fc b3be e4ef 70bd 1e71 edbe 6f06 93bf
00000300: 841f 04bf 6060 bebe bdb7 b6bc 6488 12c0
00000310: 5087 e8bf 0da0 8ebf 2002 59bc d86b d8bf
00000320: 0fdd 1abe d619 97be 7f87 85be ef8f d1bd
00000330: d002 01c0 3b25 1cbf b9fb f1be 2640 06bf
00000340: fa33 f5bf 5d20 a1bf 70b5 9bbe 2468 4fbf
00000350: bf15 36bf ce9c cdbf b95c 32bf 230d d1bd
00000360: 6a13 cb3c f69d 14c0 bf6f 7ebf 8e43 98bf
00000370: 4b99 abbe bc66 c2be 64ac 2ebf dc44 3abe
00000380: b2f3 f8be bec7 4bbf 4a21 d2bf 6b60 b8bc
00000390: 86d9 00bf 88c9 253d e29e 62be 1189 40bd
000003a0: 1129 39bf 0acd 95bf 294d aabe 734f 26c0
000003b0: d63f 17bf a7c3 37bf 4559 4e3d d13b a6b9
000003c0: 2bd4 babe 2837 3cbf 4fd2 43be 34e0 75bf
000003d0: e97b 3fbd 9cfc 37be 5098 6fbf 1820 923c
000003e0: ae8a 86be 5340 c4bf 72b0 10c0 c820 dabb
000003f0: 62bd b1be 743c edbe eb19 fdbf 4dbf b13d

fc3.bias f4 [8]
0.39193332 -2.7820363 0.03816392 0.1749347 -0.22506139 0.4950073 -2.8949513 -2.7375937
00000000: 7cab c83e e20c 32c0 c551 1c3d 1522 333e
00000010: 7e76 66be 9971 fd3e e246 39c0 bc34 2fc0
