models/intensity.pt (torch, 28331 bytes, 3 tensors)

fc1.weight f4 [128, 50]
00000000: 7225 c5bb aa18 8e3d 0d1e e13c ea93 34bc
00000010: ffa0 3fbd 0165 333d 0d31 9dbd b0dc 37bd
00000020: 70df e2bc c83f 81bd 8cae 723c c73b e9bd
00000030: e619 bfbc 4deb 77bd 6eb8 093d 1854 80bd
00000040: bf47 ed3b ccfc 0bbe db26 483d 1cff 8bbd
00000050: 0ab7 753d 9a84 c73b f5b6 973d fe2d ddbd
00000060: 2c1b 74bc d39a e23b d271 c13d 992a 26bd
00000070: ab79 03bd 5fd1 f73b f648 e4bd 9b09 483d
00000080: 84b8 7d3c 9785 b13d a35c 553c 02ad 903d
00000090: ab8f 4dbc abe1 333c 3842 b2ba 2cbd 053d
000000a0: 5fef 6dbd f2ac 29bd a95a 1d3d 7a8b 753c
000000b0: 146b 023b 8f36 b33d 6155 c3bc f81f 8b3d
000000c0: ae52 653d 9d03 f53d 6ee9 e93c a6bb 0e3e
000000d0: 22d7 8039 7c83 ab3c 3746 af3c 1b3e ab3c
000000e0: a083 9abd 2877 343d 5ad3 b6bc d68a 33bd
000000f0: 5fab 2a3d b0e0 e3bd ab68 88bd 5db2 22bc
00000100: 2186 d2bc 41d8 063d db7b 6b3c b533 b63c
00000110: 0e58 5f3d ede3 36bd 0bda d03d 8b6d 143c
00000120: 95f0 063e 18ca c6bd de07 e9bd 0ff5 c33d
00000130: 6f26 b33d 5486 c9bd 64f1 54bc 6d39 95bd
00000140: 558d b5bd de04 463c e444 843d ee18 04bd
00000150: befa 1e3c 332f 13bc 4611 a03c 0388 3a3d
00000160: 5b07 b7bd d5ec f7bc 99f8 1ebd d7a6 c43c
00000170: 516c 8f3d 6249 91bd a634 0dbd a2de de3d
00000180: 9069 31bc 076c 95bc 735b fd3a 3da5 523d
00000190: 6c12 eabb ee18 f43c 960c 013d 5b50 d93c
000001a0: 03d7 7c3d 095e 013c 37fe c83d 6267 8cbd
000001b0: 83a2 c2bc 6af9 d73c dd95 113d 6f47 01be
000001c0: 0461 cdbc 6d0a dabd 92c6 fe3c 67ed 53bd
000001d0: d380 723d 7b47 d9bd 50ac cebc bfed be3c
000001e0: 4ae5 ac3d a814 8c3d 3eb6 d73d 2d3f 0f3d
000001f0: 9d47 77bd 6fab b13c c1df 023d 830a 763d
00000200: 2f84 93bd be60 383b 8daf 7ebd 2360 ec3d
00000210: 6ee6 9f3d fc21 c0ba f65c a53d 9be6 43bd
00000220: c5ac 81bc 99af 133e cd19 2a3d cede ff3d
00000230: 18c4 fabc f070 9cbc 3bb9 5b3d acee 583d
00000240: 9e1f 933d 06ba 063d 8121 e13b d0fb f33c
00000250: ec68 50bd fdea ff3d 8d50 38bd 91b1 1e3d
00000260: 4dfc 473c 5d31 a5bd 3548 78bd 9103 e43b
00000270: 13b5 3ebd 7c91 503c bc1b c03c 4c71 f8bc
00000280: e5dd 3f3c 7c8a d43c 5397 02bb b958 e4bb
00000290: 32f1 833d 5bdc 183d 8995 e2bd 275c 4dbc
000002a0: 4553 3abc 6679 0f3d c2aa 913c 0672 703d
000002b0: 60e6 013d eafa debc a637 acbd 6d9d c83d
000002c0: 5c03 a6ba a467 f8bc e90c 99bd 9d3f 773b
000002d0: d665 9abc 6335 983d 4bfa ac3d ffe7 28bd
000002e0: da00 843d 8c9c 49bd 7dc4 c6bc 2dc1 103c
000002f0: 40a7 a8bc 9d30 dfbb 0c7e fe3c a02f 253c
00000300: a411 983d de72 23bd e1ae 22bb 8aa2 233d
00000310: 921f 92bd 0044 1fbc e6cb c03c 3fa1 453c
00000320: e5b9 623c 9f0b debc da6d a53d b74e b53d
00000330: e413 26bd 30d7 51bb 767c 18bd 29ba 0cbd
00000340: 00bb e5bd a2ec 08be 40e0 95bc 5f5a fcbb
00000350: e170 9f3a e597 98bd b6b5 753d edd0 d1bd
00000360: 710b 9a3d 1b37 9ebd 0271 49bc 2de4 9fbb
00000370: 7b97 5f3d 5b2d 633d 6ecb 953d 5257 8abc
00000380: c58d edbd fcaa bd3d 9d31 293d 4ec4 a6bc
00000390: b9dc 61bc 5a9b 973d 0321 92bd 5412 9c3d
000003a0: fcbf af3d 29db a3bd 60d7 1b3d 3c56 11be
000003b0: 9c21 293e 9a0e 103d 443b 5fbd 640f 92ba
000003c0: e591 cfb9 5a92 2a3c 0a18 073d ee22 cdbc
000003d0: 7a43 083d d65e 803c 7d54 a13d 444c 733d
000003e0: 247c 62bd a872 0b3c 6a06 1ebd 2bea 0f3d
000003f0: 239f 5f3d 89ea 4bbd 7a8d a8bd 9a5c 5f3c
-0.0060164267 0.06938298 0.02748015 -0.011021594 -0.046784397 0.043797497 -0.07675371 -0.0448882
-0.027694434 -0.063109934 0.014812123 -0.11388355 -0.023327779 -0.060527135 0.03362315 -0.062660396
0.007241219 -0.13670653 0.04886518 -0.068357676 0.059989013 0.0060888054 0.07407943 -0.10799788
-0.014899056 0.006915429 0.094455376 -0.040567968 -0.032098453 0.007562801 -0.11146729 0.048837285
0.0154858865 0.08668058 0.013022575 0.070642486 -0.01254646 0.010979096 -0.0013600057 0.03265111
-0.05808961 -0.0414247 0.03841654 0.014986867 0.001990025 0.087506406 -0.023844423 0.06793207
0.055987053 0.1196358 0.02855369 0.1393877 0.0002457435 0.02093672 0.021395786 0.020903638
-0.07544637 0.04405895 -0.022317577 -0.043833576 0.04166734 -0.1112684 -0.06660589 -0.00993022
-0.025698723 0.03292108 0.014372791 0.022241453 0.054527335 -0.04465096 0.101978384 0.00905932
0.13177712 -0.09706515 -0.11378454 0.095682256 0.08747565 -0.09840074 -0.012997005 -0.07286344
-0.088648476 0.012086121 0.06458452 -0.032250337 0.009703336 -0.008983421 0.019539487 0.045539867
-0.0893695 -0.030264298 -0.0388113 0.024005337 0.070030816 -0.07094075 -0.034474038 0.108823076
-0.010828391 -0.018239988 0.0019329622 0.051427115 -0.0071433093 0.029797044 0.031506144 0.026527574
0.06172849 0.007895955 0.09814113 -0.06855656 -0.023759132 0.026364047 0.03554331 -0.12624906
-0.025070675 -0.1064652 0.031100545 -0.051740076 0.059204888 -0.10609337 -0.02522865 0.023306726
0.08442171 0.06839877 0.10532807 0.03497236 -0.06037103 0.021688191 0.03195167 0.06006862
-0.072029464 0.0028133835 -0.062179137 0.11541774 0.07807623 -0.0014658566 0.080743715 -0.047827344
-0.015829453 0.14422454 0.04152851 0.124936685 -0.030611083 -0.019096822 0.053643446 0.05296199
0.07183765 0.03289225 0.006870449 0.02978316 -0.05088131 0.12495992 -0.044998694 0.03874356
0.012206149 -0.08066056 -0.060615737 0.006958433 -0.046559405 0.012729999 0.023450725 -0.030327462
0.011710619 0.02594494 -0.0019926622 -0.0069685844 0.06442489 0.037319522 -0.11063678 -0.012534178
-0.011372392 0.035027884 0.017781619 0.05870249 0.031713843 -0.027219255 -0.084090516 0.097956516
-0.0012665796 -0.030322857 -0.074731655 0.0037727125 -0.018847387 0.07432058 0.08446177 -0.041236874
0.06445475 -0.04922156 -0.024263615 0.008835119 -0.020587564 -0.006811215 0.031065963 0.0100821555
0.0742524 -0.039904468 -0.0024823474 0.03994993 -0.07134928 -0.009720802 0.023534726 0.01206237
0.013838266 -0.02710515 0.08077593 0.08852904 -0.040546313 -0.003201913 -0.03722807 -0.034357224
-0.11217308 -0.13371518 -0.018295407 -0.0077012028 0.0012164378 -0.074508466 0.059987746 -0.102449276
0.075217135 -0.07725354 -0.01229501 -0.0048794956 0.054587822 0.055463176 0.07314192 -0.01688734
-0.11599306 0.09261128 0.04130708 -0.020357277 -0.013785535 0.07402678 -0.07135203 0.07620683
0.0858154 -0.08000786 0.038047194 -0.14193052 0.16516727 0.035170175 -0.05449988 -0.0011143503
-0.00039590817 0.0104108695 0.03298191 -0.02504107 0.033267476 0.015670221 0.07877443 0.059398904
-0.05529417 0.008511223 -0.038580336 0.03513543 0.054595124 -0.049784217 -0.082301095 0.013632918

fc1.bias f4 [128]
00000000: 0f14 0abf feee b2be 9415 15bf 626a dabe
00000010: bbe5 dfbe 3faa 18bf d9c9 04bf 805d 12bf
00000020: 3c11 c5be f55f ddbe 3c1d 38bf 8786 e0be
00000030: 2462 d3be 0b1e cfbe 4dd7 09bf 951b 0ebf
00000040: 9d96 15bf a81c 0dbf 85d7 0fbf efbc 09bf
00000050: 2e8a 30bf fbd8 e5be 4e34 f3be 0cf4 1bbf
00000060: 5e82 22bf ed42 d0be 58b4 01bf a5d4 09bf
00000070: c79b a4be c6d8 dcbe b7c5 05bf 8aba e5be
00000080: ef79 2abf f3e2 40bf 9cc6 d2be e7a7 0bbf
00000090: 6326 c3be f420 30bf 3dcd f0be 8673 d8be
000000a0: 7b0d 0cbf 6193 1fbf 5093 cabe 37c9 f2be
000000b0: 393a 13bf 1ab4 cabe 6e18 afbe 85f3 1fbf
000000c0: 2bd3 f8be 8ef1 09bf 2589 38bf e0ec 1abf
000000d0: 5f4b 18bf b48b a8be 8f9f 09bf ba6d 27bf
000000e0: 2c72 afbe 7c91 3ebf ef7e f7be 7c61 09bf
000000f0: 3618 dbbe efba c4be 64d9 dbbe 1035 fdbe
00000100: 248f bdbe 9256 edbe 6786 1fbf a703 c0be
00000110: 5716 08bf 4277 19bf d68d c3be 49e3 22bf
00000120: 4c15 ecbe 83ed b4be 35b2 23bf 8f39 33bf
00000130: 8fca e0be 1c2a d6be 36e8 d5be c992 19bf
00000140: b4f2 33bf d398 1abf 5355 dbbe cef2 b6be
00000150: 5546 63bf 9b01 03bf 5b33 18bf a908 d3be
00000160: f7fb 06bf f723 edbe d120 c9be 1ccb cebe
00000170: 7e4a 13bf bd33 16bf 8aaf e7be 3a2a 1dbf
00000180: e262 a2be ba10 4cbf 324a 08bf 8575 06bf
00000190: b6ca 03bf a479 a8be a14e cfbe 30cc fabe
000001a0: 64ac 05bf e19f c0be 9114 21bf cda7 21bf
000001b0: f9f8 2fbf 0c88 08bf 8a9b e6be d67c fdbe
000001c0: 514a bbbe 62c0 3ebf 2114 31bf 3bf0 08bf
000001d0: e550 1ebf 627c 82be 9f51 cdbe 37ac 0ebf
000001e0: 70e0 1abf 1410 0cbf 59ce ffbe 3362 04bf
000001f0: 143a f7be ebe4 2abf 5704 32bf ee89 04bf
-0.53936857 -0.34947962 -0.5823605 -0.4265929 -0.43729958 -0.59634775 -0.51870495 -0.5717392
-0.3848971 -0.43237272 -0.7191961 -0.43852636 -0.41285813 -0.40452608 -0.5384415 -0.55510837
-0.5843294 -0.5512185 -0.5618823 -0.53803915 -0.68960845 -0.44892105 -0.47500843 -0.6091926
-0.63480175 -0.4067606 -0.5066581 -0.53840095 -0.321501 -0.43134135 -0.52254814 -0.4486888
-0.66592306 -0.753463 -0.41167152 -0.54553074 -0.38115224 -0.6880028 -0.47031584 -0.42275637
-0.5470807 -0.6233426 -0.39565516 -0.4741914 -0.57510716 -0.39590532 -0.34198326 -0.62480956
-0.48598608 -0.5388421 -0.72084266 -0.6051769 -0.5949001 -0.32919085 -0.5375909 -0.65401804
-0.34266794 -0.7444074 -0.4833903 -0.53664374 -0.4279191 -0.3842387 -0.42939293 -0.49454546
-0.3702327 -0.4635511 -0.62314457 -0.37502787 -0.5315909 -0.599476 -0.3819415 -0.6362806
-0.46109998 -0.35337457 -0.639438 -0.700097 -0.4390454 -0.41829002 -0.41778725 -0.599896
-0.7029221 -0.6038944 -0.42838535 -0.3573212 -0.88779193 -0.51174325 -0.5945336 -0.41217545
-0.5272822 -0.46316501 -0.3928285 -0.40389335 -0.5753554 -0.58672696 -0.45251113 -0.6139256
-0.31716067 -0.7971302 -0.53238213 -0.5252307 -0.5148119 -0.32905304 -0.40489677 -0.48983908
-0.5221617 -0.37621978 -0.62922007 -0.6314667 -0.6873928 -0.5333259 -0.45040542 -0.49509305
-0.36580136 -0.745123 -0.6917134 -0.5349156 -0.61842185 -0.25485522 -0.40101334 -0.5573153
-0.60498714 -0.54712033 -0.49962118 -0.5171234 -0.48286498 -0.6675555 -0.6953787 -0.51772964

fc2.weight f4 [1, 128]
00000000: 8767 f33b 44c2 783b 8e1e 2bbb 730d 39bb
00000010: 545c a9ba 0a01 3f3b e40b 4abc 4757 bc3a
00000020: f4af 30bb 4b13 fa3b f0d2 493c d431 6339
00000030: 4ca6 95bb 7c26 8b3b cd54 5fbb 9281 863c
00000040: f213 9eb9 a8b7 b73b 68b9 b9bb bd9a 6bbc
00000050: dbd8 91bb d0c3 c1bb 8042 a7bb 63e9 963b
00000060: 9eae d2b8 add0 fdba a509 15bc 9f06 b0ba
00000070: c975 9ebb 8b55 3d3c 46b0 d2bb 500a d2ba
00000080: 4703 c8ba 1368 87bb 5cb4 b7bb cece 133c
00000090: cf6b bc3a 4769 eeba fe42 2d3b db93 da3b
000000a0: 594e c1bb bdb7 3d39 772a 7f3b 8704 d1bb
000000b0: 080f 503c 677c 6cbb d2e7 01bb d45a c5bb
000000c0: a47d 86bb 8824 ebb8 1ecd 183c 91a3 06bc
000000d0: ba1e 74bb 50ba 2bbc 34af febb bf46 113c
000000e0: 5d17 ae3b 69c0 5dbb cfdf 1cbc 0c6d c4ba
000000f0: 9b66 e1ba c150 d33b 3ba0 ffb9 7d96 2639
00000100: cd5b a73b 5f8c 3ebc 5fef 383c 0783 63bc
00000110: ab90 dc3b 23a7 65ba a313 c5ba 2e5e 073c
00000120: 9649 2c3c da2d 2d3b 7b40 a73a 1548 9c3b
00000130: 9e76 a53a cd80 9a3b e570 31ba dcb9 043b
00000140: 4370 1fbc 901a 123c f3d3 2c3a 1a6e 493a
00000150: 5028 2fbb 2c5e 8d3b bcb0 15bc 9cc5 13bc
00000160: 4982 683c 9b17 103c 9dc8 5abb 96fa 04bb
00000170: dcc3 e13a a6f1 613c ceba d63a 2623 50bb
00000180: 03bd 51ba d49d d3bb ab46 98bb f709 57bb
00000190: ac73 92ba 319d 0cb9 8e71 7c3b 7eb6 61ba
000001a0: ccf8 ef3b a829 823b dd59 aeb9 5994 80ba
000001b0: 7fec 55bb e49c 3a3a b3c7 7b3b 4346 3fbc
000001c0: d79a 8439 5964 7e3c 6631 73bc 3a23 fc37
000001d0: 0067 43bc 05ec f33a 2b16 d0bb 220c 523b
000001e0: 7651 0839 0ee9 fe3b a38d 7538 5346 d1b9
000001f0: b069 5d3c bf46 053c 5b5f 5e3b 0368 333b
0.007428113 0.0037957588 -0.0026110741 -0.0028236776 -0.0012921193 0.0029144906 -0.0123319365 0.0014369272
-0.0026960345 0.0076316944 0.012318358 0.0002166697 -0.0045669433 0.004246531 -0.0034077645 0.016419206
-0.0003015097 0.0056066103 -0.005667854 -0.014380154 -0.0044509 -0.0059132352 -0.005104363 0.0046054586
-0.00010046105 -0.0019364558 -0.009096538 -0.0013429708 -0.0048358184 0.01155604 -0.006429705 -0.0016024802
-0.0015259766 -0.0041322797 -0.0056062173 0.009021474 0.0014375391 -0.0018189334 0.0026437636 0.006670458
-0.0058992323 0.00018092892 0.0038935223 -0.0063787135 0.012698896 -0.0036084892 -0.0019822014 -0.0060227904
-0.004104333 -0.00011212478 0.0093262475 -0.008217708 -0.003724976 -0.010481432 -0.0077723507 0.008866965
0.0053128437 -0.003383661 -0.0095748445 -0.0014986112 -0.0017196717 0.0064488356 -0.0004875677 0.00015887055
0.005107379 -0.011630147 0.011287539 -0.01388622 0.006731113 -0.0008760562 -0.001503576 0.0082622
0.010515591 0.0026425035 0.0012760306 0.004769335 0.0012623852 0.0047150613 -0.0006768837 0.0020252382
-0.009731355 0.008917466 0.0006592862 0.0007683948 -0.002672691 0.0043142047 -0.009136375 -0.009019282
0.014191219 0.0087946905 -0.0033383735 -0.0020290962 0.0017224508 0.013790524 0.0016382576 -0.0031759231
-0.0008000882 -0.0064580236 -0.004647096 -0.0032812336 -0.0011173389 -0.00013409999 0.0038519832 -0.00086102623
0.00732336 0.003972251 -0.0003325482 -0.0009809836 -0.0032642183 0.00071187154 0.003841859 -0.011674467
0.00025292367 0.015526854 -0.0148433205 3.0057145e-05 -0.011926413 0.0018609768 -0.006350299 0.0032050689
0.00013000317 0.007779247 5.854446e-05 -0.00039915982 0.013513967 0.008134543 0.0033931348 0.0027375228
