models/type.pt (torch, 30605 bytes, 4 tensors)

fc1.weight f4 [128, 50]
-0.36653402 -0.21611205 -0.57410544 -0.009619062 0.14811614 0.2089584 0.09636182 -0.83885956
0.20908614 -0.7434314 -0.016087987 -0.059701007 -0.3962092 -0.1282354 -0.37535605 -0.32908636
-0.27567625 0.0585368 0.070013 0.3121065 -0.7275037 0.3883059 0.19511887 0.16399762
-0.32071722 0.15679055 0.108336054 0.31548047 -0.3350432 0.7138861 0.2736106 -0.36422172
0.3468279 0.5337278 0.058354195 -0.4444735 -0.15309422 -0.26276633 0.69709194 -0.012421001
0.061058477 -0.1363399 0.09363661 0.17836165 0.36868182 0.4702955 -0.48908168 -0.19904608
0.1131781 0.035716824 -0.4585892 0.35732394 0.17881624 0.011015049 -0.0025749751 0.6681964
0.17450592 -0.015491244 0.0043454403 0.078614675 -0.02784383 -0.09138692 -0.76011693 0.3370251
-0.010528525 -0.19032082 -0.43133765 0.098108724 -0.62457585 0.008740196 0.18183377 0.230485
0.13975592 -0.6595453 0.6216047 -0.30425754 0.26807356 -0.23794675 0.28544268 1.229747
0.2730268 -0.5845793 0.18630078 -0.35630497 -0.54510367 -0.39911267 0.39068255 -0.51544833
-0.6922969 0.5985387 -1.0879476 -0.21222927 -0.15375479 0.12074734 -0.29819676 -0.333448
0.4084364 0.106297776 0.08917534 0.17580752 0.118934885 -0.96236247 -0.14960867 0.06970288
-0.40910542 0.0316324 0.31445435 -0.3444494 0.57796293 -0.6095898 0.6143828 0.3310707
0.052131675 -0.28466037 -0.10605574 -0.35224512 -0.14080739 0.2082986 0.25507113 0.39896998
0.08382975 -0.48794562 -0.14417022 0.46950758 0.35894284 -0.081567064 -0.17217824 -0.4499776
-0.04776796 -0.04168927 0.033544824 -0.4977102 0.090178624 0.08190167 -0.08516976 -0.10549427
-0.30576828 0.19754356 0.6743075 0.39798623 0.3499403 -0.30839717 0.28654027 0.15457156
0.6387598 0.33284333 0.17440455 -0.32582474 -0.26654285 0.12025174 -0.49217963 0.49223676
-0.006313532 0.23139836 0.0661983 -0.54690933 0.07982316 -0.77574736 -0.110722385 0.05349558
0.3362301 0.38031465 0.32502276 -0.08974337 -0.17582302 0.344907 -0.1073809 0.09461999
-0.30849266 0.40647733 -0.3223587 0.64593244 -0.26693666 -0.0503225 0.330633 0.038693346
-0.47473818 -0.24659967 -0.09743133 0.33244407 0.2102035 0.24521908 0.492911 -0.79306215
-0.15511073 0.32371184 0.16758886 -0.3492302 -0.23082094 -1.0050472 -0.15262973 -0.051709123
-0.41638607 -0.19278572 0.16783962 0.18303107 -0.09438388 -0.54399335 -0.46003354 0.34253848
0.257528 0.14647152 0.7657436 -0.1581446 -0.46186 -0.6606223 -0.19664407 -0.21043287
0.20439778 -0.13291632 0.2543565 0.027964177 0.54639107 -0.38262546 0.19602044 0.41435716
-0.8389008 0.04360562 0.008436684 -0.4198365 0.69858587 -0.398587 0.7069201 0.6280534
0.09552359 0.51877433 0.050606854 -0.54764 -0.14325713 -0.7381328 -0.93111753 0.42076707
-0.8941755 0.066391975 -0.23720528 -1.2066292 -0.26930314 -0.14836664 -0.6175722 -0.019819766
1.0690516 -0.516427 -0.044165947 -0.5350669 -0.12689745 -0.44209218 0.5284984 0.18471056
-0.5922588 0.9115895 -0.2828598 0.13691056 0.054559566 0.08227977 -0.11435519 -0.19042851
00000000: 59aa bbbe 7a4c 5dbe 93f8 12bf 4599 1dbc
00000010: c2ab 173e 31f9 553e 5959 c53d 80bf 56bf
00000020: ad1a 563e 8551 3ebf f4ca 83bc 0b89 74bd
00000030: efdb cabe 2450 03be ab2e c0be 027e a8be
00000040: 7025 8dbe 49c4 6f3d fa62 8f3d 6ccc 9f3e
00000050: af3d 3abf 08d0 c63e 3ecd 473e feee 273e
00000060: 0c35 a4be b48d 203e 4bdf dd3d a886 a13e
00000070: c88a abbe 3dc1 363f b016 8c3e 457b babe
00000080: 6d93 b13e 63a2 083f cf04 6f3d 0892 e3be
00000090: bbc4 1cbe 4f89 86be 9e74 323f 7481 4bbc
000000a0: 7418 7a3d b09c 0bbe 8dc4 bf3d 70a4 363e
000000b0: ddc3 bc3e 92ca f03e ea68 fabe bcd2 4bbe
000000c0: ebc9 e73d ce4b 123d 34cc eabe 2af3 b63e
000000d0: 9b1b 373e 7778 343c eac0 28bb eb0e 2b3f
000000e0: aeb1 323e fdce 7dbc 3264 8e3b bb00 a13d
000000f0: be18 e4bc 1129 bbbd 0697 42bf 8e8e ac3e
00000100: d67f 2cbc 76e3 42be 4ad8 dcbe 3aed c83d
00000110: 34e4 1fbf 0a33 0f3c a232 3a3e 4304 6c3e
00000120: 2d1c 0f3e f6d7 28bf 7c21 1f3f a5c7 9bbe
00000130: f040 893e 50a8 73be 8b25 923e 5a68 9d3f
00000140: 2bca 8b3e fda6 15bf a2c5 3e3e 9b6d b6be
00000150: ea8b 0bbf 7f58 ccbe 8b07 c83e 6cf4 03bf
00000160: 5f3a 31bf d539 193f de41 8bbf a152 59be
00000170: e571 1dbe 624a f73d 3fad 98be b2b9 aabe
00000180: 931e d13e a6b2 d93d 90a1 b63d e306 343e
00000190: 2294 f33d 635d 76bf 0433 19be 62c0 8e3d
000001a0: 4476 d1be fa90 013d 2900 a13e ac5b b0be
000001b0: 61f5 133f 140e 1cbf 3148 1d3f 1982 a93e
000001c0: 0688 553d 01bf 91be c033 d9bd 7959 b4be
000001d0: d02f 10be 3a4c 553e af98 823e cb45 cc3e
000001e0: efae ab3d 02d4 f9be 5ca1 13be 4c63 f03e
000001f0: 5bc7 b73e a20c a7bd 7e4f 30be 7763 e6be
00000200: 56a8 43bd 5ec2 2abd 4c66 093d dfd3 febe
00000210: 92af b83d 10bc a73d 7c6d aebd 610d d8bd
00000220: a98d 9cbe dc48 4a3e 6b9f 2c3f dac4 cb3e
00000230: 602b b33e 3ce6 9dbe 68b5 923e 0248 1e3e
00000240: c385 233f 716a aa3e 1b97 323e 80d2 a6be
00000250: 4e78 88be 8b46 f63d f8fe fbbe 7506 fc3e
00000260: bfe1 cebb b1f3 6c3e f992 873d 4002 0cbf
00000270: 537a a33d 6197 46bf 6bc2 e2bd 2e1e 5b3d
00000280: 5a26 ac3e 9ab8 c23e 6269 a63e 5fcb b7bd
00000290: f30a 34be a697 b03e 84ea dbbd 20c8 c13d
000002a0: c0f2 9dbe cc1d d03e 330c a5be d45b 253f
000002b0: ecab 88be f71e 4ebd bb48 a93e ea7c 1e3d
000002c0: e210 f3be a084 7cbe 148a c7bd 1c36 aa3e
000002d0: 963f 573e b61a 7b3e d55e fc3e 1f06 4bbf
000002e0: 59d5 1ebe 8fbd a53e 6a9c 2b3e 4dce b2be
000002f0: 535c 6cbe 63a5 80bf f84a 1cbe f2cc 53bd
00000300: 8e30 d5be 9f69 45be 26de 2b3e 7f6c 3b3e
00000310: 564c c1bd 2643 0bbf 8489 ebbe 3461 af3e
00000320: b6da 833e a1fc 153e c607 443f a8f0 21be
00000330: ea78 ecbe 8b1e 29bf 105d 49be b77b 57be
00000340: a74d 513e 371b 08be 043b 823e 2115 e53c
00000350: 49e0 0b3f 7ce7 c3be 95b9 483e 9f26 d43e
00000360: 34c2 56bf ce9b 323d 043a 0a3c cff4 d6be
00000370: 86d6 323f 9813 ccbe b7f8 343f 1cc8 203f
00000380: dfa1 c33d 65ce 043f 2249 4f3d 2332 0cbf
00000390: ffb1 12be 45f6 3cbf b85d 6ebf c86e d73e
000003a0: b0e8 64bf 84f8 873d f1e5 72be d372 9abf
000003b0: 1ae2 89be 6ded 17be 3619 1ebf 105d a2bc
000003c0: afd6 883f 8f34 04bf 5ae7 34bd 25fa 08bf
000003d0: 68f1 01be e859 e2be ac4b 073f c424 3d3e
000003e0: 469e 17bf ee5d 693f 00d3 90be 4832 0c3e
000003f0: da79 5f3d 4c82 a83d 0e33 eabd b1ff 42be

fc1.bias f4 [128]
-0.006679117 -0.00052547344 0.38317844 0.049895253 -0.1294026 -0.08453911 0.18956514 -0.034695398
-0.14530768 0.35662994 0.09929856 0.3154639 -0.067838736 0.21813767 0.48145306 -0.03509579
0.023481514 0.36253676 0.3234867 0.1076141 0.16688381 -0.047065686 0.31773123 -0.12037485
0.1787009 0.22361957 0.5903927 0.4972912 0.074751064 0.22972003 -0.21219529 -0.4992631
-0.307869 0.37359446 -0.09950262 0.47560185 0.12647846 0.36075774 -0.01707455 0.5452732
-0.3383912 -0.1569967 -0.093025625 0.41514462 0.051294655 0.47989464 0.536202 -0.08882749
0.41323605 0.17221795 0.26282457 0.09291794 0.2590526 0.020114759 0.2595867 0.09885862
0.08803466 -0.54883915 0.50831157 0.30841014 0.23100138 0.50963897 0.38596466 -0.2759169
0.61797607 0.4562016 0.10455328 -0.18378538 -0.06289119 0.48101872 0.26098663 0.07931792
-0.24093352 0.41234866 0.24202427 0.37961897 0.15702318 -0.02891097 0.118727274 0.36650878
0.18830116 -0.07135485 0.12866884 0.37308633 0.16785148 0.30545807 -0.050322324 -0.14276907
0.4967076 0.09511159 0.21267052 -0.049094666 -0.1658172 0.039228085 -0.011551303 0.04514744
0.25563735 0.07713378 0.62962234 0.43825117 0.054786194 0.10190763 0.19064507 0.15414959
0.36081725 -0.27383015 0.18810688 0.086509615 0.30622518 0.19755405 0.1881247 0.20829202
-0.01948989 0.27263242 0.1395824 0.41801405 0.07929096 0.12869789 -0.05502669 0.18140663
0.53684604 0.3317078 0.2957969 -0.029136136 -0.13622485 0.014477004 -0.051809486 0.19323687
00000000: 7fdc dabb edbf 09ba f72f c43e f75e 4c3d
00000010: 1d82 04be d722 adbd 5d1d 423e c31c 0ebd
00000020: 89cb 14be 3398 b63e 0b5d cb3d 7c84 a13e
00000030: 09ef 8abd 7b5f 5f3e 0481 f63e 9ac0 0fbd
00000040: 4e5c c03c 6b9e b93e 0ca0 a53e c864 dc3d
00000050: 97e3 2a3e f3c7 40bd abad a23e 1787 f6bd
00000060: 5efd 363e 87fc 643e fa23 173f f49c fe3e
00000070: 1617 993d ba3b 6b3e b949 59be 6a9f ffbe
00000080: 01a1 9dbe c647 bf3e 08c8 cbbd 1682 f33e
00000090: 9283 013e 3db5 b83e eddf 8bbc 0697 0b3f
000000a0: 9d41 adbe bec3 20be 3884 bebd d68d d43e
000000b0: 581a 523d c0b4 f53e 8944 093f 30eb b5bd
000000c0: ad93 d33e e759 303e f190 863e c34b be3d
000000d0: 8ba2 843e b5c7 a43c 8ce8 843e 6376 ca3d
000000e0: 844b b43d b980 0cbf b520 023f efe7 9d3e
000000f0: a08b 6c3e b377 023f 299d c53e fb44 8dbe
00000100: ae33 1e3f 4293 e93e 0820 d63d 3c32 3cbe
00000110: 19cd 80bd 1648 f63e 0aa0 853e 6f71 a23d
00000120: 47b7 76be 5d1f d33e 36d5 773e 6b5d c23e
00000130: afca 203e b3d6 ecbc 4927 f33d 0aa7 bb3e
00000140: 05d2 403e 7e22 92bd c4c1 033e 2c05 bf3e
00000150: 42e1 2b3e 0065 9c3e c81e 4ebd 0e32 12be
00000160: 7550 fe3e dec9 c23d 4dc6 593e 7d17 49bd
00000170: fccb 29be a1ad 203d ad41 3dbc 86ec 383d
00000180: e6e2 823e 51f8 9d3d ee2e 213f 7562 e03e
00000190: 7d67 603d f3b4 d03d 7638 433e 64d9 1d3e
000001a0: 0abd b83e 7733 8cbe 179f 403e f42b b13d
000001b0: 8cc9 9c3e 9c4b 4a3e c3a3 403e 814a 553e
000001c0: 43a9 9fbc 7a96 8b3e b0ee 0e3e f005 d63e
000001d0: 4d63 a23d 61c9 033e ab63 61bd a9c2 393e
000001e0: be6e 093f 9bd5 a93e b172 973e e8ae eebc
000001f0: 877e 0bbe f530 6d3c 2f36 54bd e3df 453e

fc2.weight f4 [6, 128]
0.5802396 -0.40061823 0.59026515 -0.20785588 -1.5198627 0.97691154 -0.953084 1.1568823
-0.21880269 -1.0311593 0.38648793 0.24136701 -1.3026142 -0.17515166 0.50715685 -0.9559511
0.29413185 0.3906206 0.83745414 0.512807 -1.9477544 -0.11367577 0.45975396 0.105716504
1.3871588 0.13233443 0.6978696 0.21135624 -0.19153583 0.8066436 0.42947587 0.59765613
1.1559614 1.453563 -1.2768873 0.11588544 -0.23548533 0.048163556 1.4198536 1.3294277
1.0022315 0.06836483 -1.8513204 0.46412328 1.0495132 0.6127635 1.1365463 0.65241253
1.0557786 -0.664403 -0.30690488 0.33115518 1.1491148 -0.41123185 -0.04139562 -2.0691307
0.35974118 -0.052768763 0.6255494 0.07248628 -1.9917892 1.820491 0.6258167 -0.45996138
0.78960365 0.39108807 0.25556505 -1.8907412 1.8298459 0.2331669 1.2000731 -0.413007
-0.15007184 0.5452227 -0.34835732 0.113049 -0.26825234 -0.682487 1.3037744 0.6669744
-0.399601 0.21499328 -0.5906035 0.7012398 0.6185829 0.25897533 -0.33526593 -1.4801735
-0.37052253 0.5540796 0.52942806 -1.6020877 -2.210452 0.3162355 0.08778765 -0.6191826
-0.34066194 1.266315 0.94460696 1.3467809 0.7863255 -0.56165886 -0.46932593 0.9188909
0.15837449 0.576472 -0.5048601 0.12599571 0.4377409 -0.21700403 0.07300364 0.81102645
0.7174051 0.32652822 0.45510164 0.7796321 -0.10787846 0.31646279 -0.3987984 1.0367903
-0.053097706 0.6166081 0.51605695 -1.9784346 -0.5115521 -1.1078918 -0.9622059 -0.25463614
0.88129765 0.45190996 -0.22968885 -0.9374983 -1.3025473 -0.36589155 0.75236344 -1.5918999
-1.6894804 1.1981559 -1.2658678 0.95753175 0.3859601 0.92054063 -0.016011082 0.4756592
-1.4409171 0.40034327 -0.90217364 -1.842915 0.39325547 -0.8651347 -0.045601144 -1.0998924
-0.20297402 0.8570086 0.042323038 -1.8791162 0.33912334 0.5363892 -1.5156474 -0.6650928
-0.7151153 0.2811046 0.7156543 1.0721953 0.18311763 0.1578004 -2.025858 -1.8419925
0.8100947 -2.0674105 0.31592327 -1.1748197 -1.8312724 0.32904246 -0.2256522 -1.4061327
-2.0995197 0.34087458 0.16424823 0.2603461 0.08179555 -0.97978425 0.25208634 0.71717364
0.2213919 2.0771673 -0.0636305 0.34664628 0.6116622 -0.54208744 0.32676032 0.95505255
0.91567236 0.94361174 -2.6971931 1.5550466 -0.4209533 -0.7354757 0.78468555 -0.16105814
0.9691398 0.91880196 -1.5451512 -2.1525588 -1.2369488 0.25045356 -0.2492332 -0.19175167
-1.813744 0.6942563 0.14463681 0.059424017 0.109339215 0.76370823 -1.305459 1.9133155
0.4694258 -1.033156 -1.1409124 0.40506038 -0.15883881 0.72259957 -0.57285017 0.55703133
-1.0059447 -0.39526024 0.024314206 -0.32132462 -1.8892043 0.2844162 -1.2690718 -0.60188496
-0.30118406 -0.542969 0.55317265 -1.7411759 0.41955227 -2.0935245 -1.282732 -0.12336764
1.3824004 -0.048537653 0.26017913 0.912779 -0.025789225 2.0617034 0.21874337 0.076951265
0.2466841 -1.0730271 -0.03324219 1.1260495 -0.6916303 0.3822386 0.48918858 -1.1773194
00000000: 958a 143f d51d cdbe 9e1b 173f 2cd8 54be
00000010: dc8a c2bf e016 7a3f 50fd 73bf b814 943f
00000020: d00d 60be 07fd 83bf bfe1 c53e ea28 773e
00000030: 10bc a6bf f55a 33be 08d5 013f 36b9 74bf
00000040: 7398 963e 6cff c73e 6563 563f 5247 033f
00000050: 0450 f9bf d8ce e8bd df64 eb3e e581 d83d
00000060: 6b8e b13f ad82 073e 95a7 323f c56d 583e
00000070: f821 44be 3280 4e3f 43e4 db3e feff 183f
00000080: 8bf6 933f 5a0e ba3f 0b71 a3bf 5855 ed3d
00000090: 1123 71be 2647 453d c3bd b53f b02a aa3f
000000a0: 1f49 803f dc02 8c3d 11f8 ecbf 91a1 ed3e
000000b0: 7356 863f 12de 1c3f 597a 913f 8204 273f
000000c0: c123 873f 5116 2abf a322 9dbe 2c8d a93e
000000d0: 3216 933f fb8c d2be 748e 29bd a36c 04c0
000000e0: ff2f b83e 0f24 58bd 0124 203f b073 943d
000000f0: f3f2 febf d905 e93f 8635 203f 0f80 ebbe
00000100: 7723 4a3f b23c c83e 6cd9 823e cf03 f2bf
00000110: 6438 ea3f 4ec3 6e3e ff9b 993f a775 d3be
00000120: 6fac 19be b793 0b3f e45b b2be 3c86 e73d
00000130: 5f58 89be 78b7 2ebf 14e2 a63f d6be 2a3f
00000140: 8198 ccbe 3327 5c3e ca31 17bf 7484 333f
00000150: 735b 1e3f 6a98 843e faa7 abbe 5376 bdbf
00000160: 21b5 bdbe 29d8 0d3f 9988 073f 3611 cdbf
00000170: 0c78 0dc0 9fe9 a13e 03ca b33d c082 1ebf
00000180: 3e6b aebe 9c16 a23f c3d1 713f 5163 ac3f
00000190: a14c 493f e0c8 0fbf 7d4b f0be 6f3c 6b3f
000001a0: ec2c 223e ab93 133f 833e 01bf 0505 013e
000001b0: 931f e03e 4e36 5ebe ef82 953d 6e9f 4f3f
000001c0: dca7 373f b52e a73e 1503 e93e f895 473f
000001d0: 62ef dcbd 6907 a23e 4e2f ccbe 8bb5 843f
000001e0: fb7c 59bd 07da 1d3f 4f1c 043f 583d fdbf
000001f0: 14f5 02bf 66cf 8dbf 2053 76bf ab5f 82be
00000200: b99c 613f be60 e73e 8e33 6bbe e3ff 6fbf
00000210: dfb9 a6bf 2356 bbbe e49a 403f 60c3 cbbf
00000220: e540 d8bf 2c5d 993f f507 a2bf cd20 753f
00000230: 909c c53e 8da8 6b3f ac29 83bc 9a89 f33e
00000240: f96f b8bf cbf9 cc3e daf4 66bf a4e4 ebbf
00000250: c858 c93e 7879 5dbf 44c8 3abd 46c9 8cbf
00000260: 6cd8 4fbe ea64 5b3f ec5a 2d3d e186 f0bf
00000270: 93a1 ad3e cd50 093f bc00 c2bf 8643 2abf
00000280: cc11 37bf f1ec 8f3e 1f35 373f b23d 893f
00000290: 3083 3b3e 6e96 213e a8a7 01c0 69c6 ebbf
000002a0: 5e62 4f3f 7450 04c0 b2c0 a13e 7e60 96bf
000002b0: 2267 eabf 4178 a83e 5f11 67be 28fc b3bf
000002c0: 885e 06c0 1d87 ae3e b030 283e 164c 853e
000002d0: 6d84 a73d 24d3 7abf 7611 813e b198 373f
000002e0: 8fb4 623e 4ff0 0440 b550 82bd 9f7b b13e
000002f0: e595 1c3f 3ec6 0abf 214d a73e 537e 743f
00000300: 8169 6a3f 8a90 713f d09e 2cc0 c40b c73f
00000310: 3187 d7be 2348 3cbf 27e1 483f 6dec 24be
00000320: 8c19 783f 9b36 6b3f 84c7 c5bf 86c3 09c0
00000330: 5754 9ebf 733b 803e fd36 7fbe 8d5a 44be
00000340: c328 e8bf c8ba 313f ac1b 143e 9966 733d
00000350: 3ded df3d 6282 433f 4819 a7bf 86e7 f43f
00000360: 9458 f03e 753e 84bf 6b09 92bf 1364 cf3e
00000370: a4a6 22be 49fc 383f 4fa6 12bf 9b99 0e3f
00000380: ccc2 80bf 8d5f cabe 962e c73c a984 a4be
00000390: 72d1 f1bf 009f 913e f270 a2bf 2215 1abf
000003a0: cc34 9abe 0400 0bbf b99c 0d3f dade debf
000003b0: 8ecf d63e 4efc 05c0 9030 a4bf 2ca8 fcbd
000003c0: 7ff2 b03f 6bcf 46bd 3336 853e e2ab 693f
000003d0: ed43 d3bc f3f2 0340 43fe 5f3e a098 9d3d
000003e0: c29a 7c3e f458 89bf f628 08bd 6422 903f
000003f0: af0e 31bf c7b4 c33e ed76 fa3e 67b2 96bf

fc2.bias f4 [6]
-0.0012036603 -0.05615025 -0.034343507 -0.1572279 -0.029275846 0.1999888
00000000: 23c4 9dba cefd 65bd c7ab 0cbd 5a00 21be
00000010: e6d3 efbc ddc9 4c3e
